prediction_wind_solar_price_load/solar_mlp.pth (torch_old, 3069 bytes, 6 tensors)

l1_in.weight f4 [10, 24]
0.19851458 -471.97983 -944.3018 -1416.5702 -1888.3876 -2360.4868 -2832.6777 -3304.987
-3776.8738 -4248.977 -4721.3643 -5193.1934 -5665.377 -6137.631 -6609.745 -7081.9326
-7553.814 -8026.1304 -8498.1045 -8970.501 -9442.3955 -9914.444 -10386.642 -10858.961
-0.13054568 -484.22604 -968.4861 -1452.7727 -1937.2743 -2421.7708 -2905.9968 -3390.1099
-3874.4773 -4358.744 -4843.207 -5327.601 -5811.84 -6296.241 -6780.527 -7264.6406
-7748.921 -8233.247 -8717.5625 -9202.02 -9686.258 -10170.433 -10654.914 -11139.295
-0.020150006 -0.035010934 -0.08726037 -0.1652683 -0.091437705 0.13162592 0.038072303 -0.072069824
0.04037516 -0.096231505 -0.15420413 0.14431581 0.099166304 -0.06476705 -0.057046086 -0.15161702
-0.09954449 0.19362092 -0.17799146 -0.19302684 -0.1582715 0.034406394 0.0003991872 -0.106387526
-0.08225357 -0.19311018 -0.079338156 0.06194304 -0.2641878 -0.022636384 -0.3701055 -0.291479
-0.32624173 -0.2767972 -0.58402365 -0.545574 -0.48357472 -0.58722186 -0.7538916 -0.73758185
-0.518135 -0.7700442 -0.7622817 -0.96603453 -0.73678803 -0.8001803 -0.98397714 -0.8317399
0.17324296 -0.01157476 -0.5570612 -0.69169915 -0.62865514 -0.9979968 -1.1136622 -1.4553845
-1.6070642 -1.6056682 -2.1585093 -2.0001903 -2.2724288 -2.389192 -2.7331672 -2.9302554
-3.0487685 -3.5189853 -3.5125296 -3.556141 -4.120708 -4.1700144 -4.384057 -4.560728
0.1530574 -0.14949292 0.035346463 -0.15990573 0.19623062 0.044862717 -0.16118607 0.010655224
-0.14780927 -0.06262952 0.085110575 0.07812932 0.04046665 0.004613191 -0.02228418 -0.1656134
0.19659689 0.19559094 0.01411131 -0.059207454 -0.102136925 -0.03713724 -0.1513028 -0.02786623
0.1834909 -0.04269308 -0.22065069 -0.20198303 -0.43750176 -0.6097721 -0.7511968 -0.6626475
-1.0131485 -0.96622515 -1.2697067 -1.3313755 -1.3401716 -1.4089196 -1.5731509 -1.6824914
-1.7568911 -1.9767207 -2.0033343 -2.402387 -2.4392023 -2.6439528 -2.6449223 -2.7784724
-0.1479906 -0.23931813 0.008592561 -0.14759253 -0.37432003 -0.15649638 -0.1849697 -0.13478646
-0.5294838 -0.3337598 -0.6590742 -0.36681375 -0.5641269 -0.46839637 -0.669693 -0.83530295
-0.67183757 -0.7543186 -0.65221953 -0.8568063 -0.7258253 -1.1064827 -0.9026078 -0.96321297
0.15057483 -0.27351987 -1.0711697 -1.6049737 -1.9191252 -2.5371382 -3.019796 -3.3204954
-3.6378922 -4.13935 -4.9431973 -5.12249 -5.840046 -6.0057034 -6.523798 -6.954115
-7.465454 -8.089098 -8.380329 -9.027459 -9.515894 -9.847595 -10.424178 -11.091521
0.024200365 0.07046309 -0.0031183064 0.038298637 0.047394127 0.18062824 -0.17033656 -0.13711715
0.18916988 -0.15183175 0.20228666 0.08420786 0.20256689 0.0077738464 -0.053808287 0.13197243
0.09593749 -0.08771196 -0.16384287 -0.028038055 0.16734225 -0.14213029 -0.063836426 -0.074245974
00000000: 6847 4b3e 6bfd ebc3 5113 6cc4 3f12 b1c4
00000010: 670c ecc4 ca87 13c5 d80a 31c5 cb8f 4ec5
00000020: fb0d 6cc5 d1c7 84c5 ea8a 93c5 8c49 a2c5
00000030: 040b b1c5 0ccd bfc5 f68d cec5 764f ddc5
00000040: 830e ecc5 0bd1 fac5 6bc8 04c6 012a 0cc6
00000050: 9589 13c6 c7e9 1ac6 914a 22c6 d8ab 29c6
00000060: c4ad 05be ef1c f2c3 1c1f 72c4 ba98 b5c4
00000070: c728 f2c4 555c 17c5 f39f 35c5 c2e1 53c5
00000080: a327 72c5 f435 88c5 a859 97c5 cf7c a6c5
00000090: b89e b5c5 eec1 c4c5 37e4 d3c5 2005 e3c5
000000a0: 5e27 f2c5 fda4 00c6 4036 08c6 14c8 0fc6
000000b0: 0859 17c6 bbe9 1ec6 a87b 26c6 2e0d 2ec6
000000c0: a011 a5bc a067 0fbd 91b5 b2bd 183c 29be
000000d0: b143 bbbd f2c8 063e b4f1 1b3d 5899 93bd
000000e0: 6c60 253d 0615 c5bd b0e7 1dbe 86c7 133e
000000f0: b417 cb3d 96a4 84bd 28a9 69bd 7e41 1bbe
00000100: fbdd cbbd 9044 463e 6543 36be d4a8 45be
00000110: ed11 22be b8ed 0c3d 004a d139 b4e1 d9bd
00000120: 8f74 a8bd adbe 45be 0b7c a2bd fcb7 7d3d
00000130: a043 87be f06f b9bc 787e bdbe bc3c 95be
00000140: 2809 a7be 5db8 8dbe 9382 15bf bdaa 0bbf
00000150: 1b97 f7be 2c54 16bf 0aff 40bf 2ad2 3cbf
00000160: 7fa4 04bf 9e21 45bf e524 43bf 0a4e 77bf
00000170: 249e 3cbf 9ed8 4cbf ede5 7bbf e8ec 54bf
00000180: 9a66 313e 10a4 3dbc 909b 0ebf 3213 31bf
00000190: 8bef 20bf b87c 7fbf 7c8c 8ebf 0a4a babf
000001a0: 48b4 cdbf 8986 cdbf 0425 0ac0 1e03 00c0
000001b0: 796f 11c0 86e8 18c0 36ec 2ec0 4e89 3bc0
000001c0: 061f 43c0 0e37 61c0 49cd 60c0 d097 63c0
000001d0: d7dc 83c0 c270 85c0 324a 8cc0 7cf1 91c0
000001e0: 14bb 1c3e ac14 19be 74c7 103d 54be 23be
000001f0: aef0 483e f8c1 373d f60d 25be 4093 2e3c
00000200: 505b 17be e843 80bd 744e ae3d 4402 a03d
00000210: 5cc0 253d 402a 973b 508d b6bc 8f96 29be
00000220: b250 493e fe48 483e 2033 673c 8483 72bd
00000230: 2a2d d1bd 381d 18bd 1fef 1abe b847 e4bc
00000240: 0ae5 3b3e f0de 2ebd 41f2 61be a4d4 4ebe
00000250: 3b00 e0be 061a 1cbf 6f4e 40bf 44a3 29bf
00000260: daae 81bf 885a 77bf c085 a2bf 836a aabf
00000270: be8a abbf 7a57 b4bf 025d c9bf e15b d7bf
00000280: cfe1 e0bf 2f05 fdbf a136 00c0 b5c0 19c0
00000290: e41b 1cc0 8636 29c0 6846 29c0 7ed2 31c0
000002a0: d98a 17be d00f 75be d0c7 0c3c 7f22 17be
000002b0: e0a6 bfbe 9640 20be b268 3dbe 7605 0abe
000002c0: 408c 07bf 91e2 aabe 16b9 28bf 03cf bbbe
000002d0: 9f6a 10bf a6d1 efbe 0071 2bbf 6ad6 55bf
000002e0: 8cfd 2bbf 061b 41bf dcf7 26bf a857 5bbf
000002f0: b0cf 39bf 3aa1 8dbf 4e11 67bf 2095 76bf
00000300: 4a30 1a3e cc0a 8cbe 171c 89bf c76f cdbf
00000310: e5a5 f5bf 7960 22c0 5644 41c0 ff82 54c0
00000320: 3ad3 68c0 8e75 84c0 ac2e 9ec0 70eb a3c0
00000330: a8e1 bac0 b92e c0c0 f4c2 d0c0 1c88 dec0
00000340: 00e5 eec0 f26c 01c1 d415 06c1 7970 10c1
00000350: 1a41 18c1 c08f 1dc1 6fc9 26c1 df76 31c1
00000360: d83f c63c f44e 903d 805c 4cbb 08df 1c3d
00000370: 5820 423d 9cf6 383e b56c 2ebe 7068 0cbe
00000380: c0b5 413e c879 1bbe 3c24 4f3e 2c75 ac3d
00000390: b26d 4f3e c0bb fe3b 1466 5cbd c823 073e
000003a0: e07a c43d 54a2 b3bd 6dc6 27be 10b0 e5bc
000003b0: c45b 2b3e 9a8a 11be acbc 82bd 460e 98bd

l1_in.bias f4 [10]
-472.10986 -484.48367 -0.0802534 -0.04781759 -0.36312002 0.16348085 -0.21161371 -0.14086308
-0.59310454 0.032514557
00000000: 100e ecc3 e93d f2c3 e55b a4bd 61dc 43bd
00000010: deea b9be 8667 273e 44b1 58be 693e 10be
00000020: b3d5 17bf fc2d 053d

l1_out.inplace.weight f4 [10, 24]
0.19851458 -471.97983 -944.3018 -1416.5702 -1888.3876 -2360.4868 -2832.6777 -3304.987
-3776.8738 -4248.977 -4721.3643 -5193.1934 -5665.377 -6137.631 -6609.745 -7081.9326
-7553.814 -8026.1304 -8498.1045 -8970.501 -9442.3955 -9914.444 -10386.642 -10858.961
-0.13054568 -484.22604 -968.4861 -1452.7727 -1937.2743 -2421.7708 -2905.9968 -3390.1099
-3874.4773 -4358.744 -4843.207 -5327.601 -5811.84 -6296.241 -6780.527 -7264.6406
-7748.921 -8233.247 -8717.5625 -9202.02 -9686.258 -10170.433 -10654.914 -11139.295
-0.020150006 -0.035010934 -0.08726037 -0.1652683 -0.091437705 0.13162592 0.038072303 -0.072069824
0.04037516 -0.096231505 -0.15420413 0.14431581 0.099166304 -0.06476705 -0.057046086 -0.15161702
-0.09954449 0.19362092 -0.17799146 -0.19302684 -0.1582715 0.034406394 0.0003991872 -0.106387526
-0.08225357 -0.19311018 -0.079338156 0.06194304 -0.2641878 -0.022636384 -0.3701055 -0.291479
-0.32624173 -0.2767972 -0.58402365 -0.545574 -0.48357472 -0.58722186 -0.7538916 -0.73758185
-0.518135 -0.7700442 -0.7622817 -0.96603453 -0.73678803 -0.8001803 -0.98397714 -0.8317399
0.17324296 -0.01157476 -0.5570612 -0.69169915 -0.62865514 -0.9979968 -1.1136622 -1.4553845
-1.6070642 -1.6056682 -2.1585093 -2.0001903 -2.2724288 -2.389192 -2.7331672 -2.9302554
-3.0487685 -3.5189853 -3.5125296 -3.556141 -4.120708 -4.1700144 -4.384057 -4.560728
0.1530574 -0.14949292 0.035346463 -0.15990573 0.19623062 0.044862717 -0.16118607 0.010655224
-0.14780927 -0.06262952 0.085110575 0.07812932 0.04046665 0.004613191 -0.02228418 -0.1656134
0.19659689 0.19559094 0.01411131 -0.059207454 -0.102136925 -0.03713724 -0.1513028 -0.02786623
0.1834909 -0.04269308 -0.22065069 -0.20198303 -0.43750176 -0.6097721 -0.7511968 -0.6626475
-1.0131485 -0.96622515 -1.2697067 -1.3313755 -1.3401716 -1.4089196 -1.5731509 -1.6824914
-1.7568911 -1.9767207 -2.0033343 -2.402387 -2.4392023 -2.6439528 -2.6449223 -2.7784724
-0.1479906 -0.23931813 0.008592561 -0.14759253 -0.37432003 -0.15649638 -0.1849697 -0.13478646
-0.5294838 -0.3337598 -0.6590742 -0.36681375 -0.5641269 -0.46839637 -0.669693 -0.83530295
-0.67183757 -0.7543186 -0.65221953 -0.8568063 -0.7258253 -1.1064827 -0.9026078 -0.96321297
0.15057483 -0.27351987 -1.0711697 -1.6049737 -1.9191252 -2.5371382 -3.019796 -3.3204954
-3.6378922 -4.13935 -4.9431973 -5.12249 -5.840046 -6.0057034 -6.523798 -6.954115
-7.465454 -8.089098 -8.380329 -9.027459 -9.515894 -9.847595 -10.424178 -11.091521
0.024200365 0.07046309 -0.0031183064 0.038298637 0.047394127 0.18062824 -0.17033656 -0.13711715
0.18916988 -0.15183175 0.20228666 0.08420786 0.20256689 0.0077738464 -0.053808287 0.13197243
0.09593749 -0.08771196 -0.16384287 -0.028038055 0.16734225 -0.14213029 -0.063836426 -0.074245974
00000000: 6847 4b3e 6bfd ebc3 5113 6cc4 3f12 b1c4
00000010: 670c ecc4 ca87 13c5 d80a 31c5 cb8f 4ec5
00000020: fb0d 6cc5 d1c7 84c5 ea8a 93c5 8c49 a2c5
00000030: 040b b1c5 0ccd bfc5 f68d cec5 764f ddc5
00000040: 830e ecc5 0bd1 fac5 6bc8 04c6 012a 0cc6
00000050: 9589 13c6 c7e9 1ac6 914a 22c6 d8ab 29c6
00000060: c4ad 05be ef1c f2c3 1c1f 72c4 ba98 b5c4
00000070: c728 f2c4 555c 17c5 f39f 35c5 c2e1 53c5
00000080: a327 72c5 f435 88c5 a859 97c5 cf7c a6c5
00000090: b89e b5c5 eec1 c4c5 37e4 d3c5 2005 e3c5
000000a0: 5e27 f2c5 fda4 00c6 4036 08c6 14c8 0fc6
000000b0: 0859 17c6 bbe9 1ec6 a87b 26c6 2e0d 2ec6
000000c0: a011 a5bc a067 0fbd 91b5 b2bd 183c 29be
000000d0: b143 bbbd f2c8 063e b4f1 1b3d 5899 93bd
000000e0: 6c60 253d 0615 c5bd b0e7 1dbe 86c7 133e
000000f0: b417 cb3d 96a4 84bd 28a9 69bd 7e41 1bbe
00000100: fbdd cbbd 9044 463e 6543 36be d4a8 45be
00000110: ed11 22be b8ed 0c3d 004a d139 b4e1 d9bd
00000120: 8f74 a8bd adbe 45be 0b7c a2bd fcb7 7d3d
00000130: a043 87be f06f b9bc 787e bdbe bc3c 95be
00000140: 2809 a7be 5db8 8dbe 9382 15bf bdaa 0bbf
00000150: 1b97 f7be 2c54 16bf 0aff 40bf 2ad2 3cbf
00000160: 7fa4 04bf 9e21 45bf e524 43bf 0a4e 77bf
00000170: 249e 3cbf 9ed8 4cbf ede5 7bbf e8ec 54bf
00000180: 9a66 313e 10a4 3dbc 909b 0ebf 3213 31bf
00000190: 8bef 20bf b87c 7fbf 7c8c 8ebf 0a4a babf
000001a0: 48b4 cdbf 8986 cdbf 0425 0ac0 1e03 00c0
000001b0: 796f 11c0 86e8 18c0 36ec 2ec0 4e89 3bc0
000001c0: 061f 43c0 0e37 61c0 49cd 60c0 d097 63c0
000001d0: d7dc 83c0 c270 85c0 324a 8cc0 7cf1 91c0
000001e0: 14bb 1c3e ac14 19be 74c7 103d 54be 23be
000001f0: aef0 483e f8c1 373d f60d 25be 4093 2e3c
00000200: 505b 17be e843 80bd 744e ae3d 4402 a03d
00000210: 5cc0 253d 402a 973b 508d b6bc 8f96 29be
00000220: b250 493e fe48 483e 2033 673c 8483 72bd
00000230: 2a2d d1bd 381d 18bd 1fef 1abe b847 e4bc
00000240: 0ae5 3b3e f0de 2ebd 41f2 61be a4d4 4ebe
00000250: 3b00 e0be 061a 1cbf 6f4e 40bf 44a3 29bf
00000260: daae 81bf 885a 77bf c085 a2bf 836a aabf
00000270: be8a abbf 7a57 b4bf 025d c9bf e15b d7bf
00000280: cfe1 e0bf 2f05 fdbf a136 00c0 b5c0 19c0
00000290: e41b 1cc0 8636 29c0 6846 29c0 7ed2 31c0
000002a0: d98a 17be d00f 75be d0c7 0c3c 7f22 17be
000002b0: e0a6 bfbe 9640 20be b268 3dbe 7605 0abe
000002c0: 408c 07bf 91e2 aabe 16b9 28bf 03cf bbbe
000002d0: 9f6a 10bf a6d1 efbe 0071 2bbf 6ad6 55bf
000002e0: 8cfd 2bbf 061b 41bf dcf7 26bf a857 5bbf
000002f0: b0cf 39bf 3aa1 8dbf 4e11 67bf 2095 76bf
00000300: 4a30 1a3e cc0a 8cbe 171c 89bf c76f cdbf
00000310: e5a5 f5bf 7960 22c0 5644 41c0 ff82 54c0
00000320: 3ad3 68c0 8e75 84c0 ac2e 9ec0 70eb a3c0
00000330: a8e1 bac0 b92e c0c0 f4c2 d0c0 1c88 dec0
00000340: 00e5 eec0 f26c 01c1 d415 06c1 7970 10c1
00000350: 1a41 18c1 c08f 1dc1 6fc9 26c1 df76 31c1
00000360: d83f c63c f44e 903d 805c 4cbb 08df 1c3d
00000370: 5820 423d 9cf6 383e b56c 2ebe 7068 0cbe
00000380: c0b5 413e c879 1bbe 3c24 4f3e 2c75 ac3d
00000390: b26d 4f3e c0bb fe3b 1466 5cbd c823 073e
000003a0: e07a c43d 54a2 b3bd 6dc6 27be 10b0 e5bc
000003b0: c45b 2b3e 9a8a 11be acbc 82bd 460e 98bd

l1_out.inplace.bias f4 [10]
-472.10986 -484.48367 -0.0802534 -0.04781759 -0.36312002 0.16348085 -0.21161371 -0.14086308
-0.59310454 0.032514557
00000000: 100e ecc3 e93d f2c3 e55b a4bd 61dc 43bd
00000010: deea b9be 8667 273e 44b1 58be 693e 10be
00000020: b3d5 17bf fc2d 053d

l2.weight f4 [24, 10]
-392.4286 -1379.436 0.10771969 -0.09896279 0.29819894 -0.0323523 -0.21582085 0.18703398
-0.32581148 -0.10263343 -178.4152 -627.58826 0.07919744 0.25835198 0.11523886 -0.092960864
-0.29527035 -0.14101273 -0.22611529 -0.07111654 -237.94443 -834.82056 -0.26581782 0.309569
-0.08048914 -0.05444786 0.2355704 -0.27088034 0.085243344 0.16801107 180.63704 633.9305
-0.0031404197 0.29331753 0.25002334 0.17618507 -0.16997448 -0.27566338 0.0009298958 0.12754896
229.1663 804.62805 0.1314049 0.24049881 0.15865035 0.25198326 0.2032387 0.02873034
0.08729868 -0.07184522 -310.0821 -1090.1609 -0.27392948 -0.14447407 -0.054292165 -0.12447308
-0.17195597 0.23830765 0.42021108 -0.11390796 -844.10614 -2966.309 0.31015012 0.35317934
0.14995846 0.21869239 -0.1915162 0.9895575 1.3588579 0.13871443 -2589.6274 -9100.811
-0.16496484 1.3111072 0.2538492 0.17408317 0.21192712 1.9051274 2.8095012 -0.2837316
-3107.703 -10923.8545 0.28965762 1.0881429 0.20797703 0.1758334 0.25590783 2.1868455
3.22286 0.19138554 -3974.949 -13969.412 -0.07158138 1.610673 0.44410113 0.1561727
0.03175047 2.7128794 3.397566 0.2395198 -8872.8955 -31183.451 0.0668782 3.264089
0.4635365 0.21197262 0.4068947 5.939343 8.446351 0.2833759 -11355.995 -39911.586
0.043301493 4.361866 0.65213406 -0.17378272 0.76316845 7.736472 10.485008 0.18175682
-10540.517 -37046.56 -0.2096604 3.7744553 0.5822092 -0.12933573 0.5613704 7.449474
10.487732 -0.059556246 -10231.878 -35961.004 0.17186299 3.607632 0.48606697 -0.09692991
0.40255678 7.2625055 9.524911 0.12520641 -7518.431 -26423.98 0.2382138 2.4564369
0.74267566 -0.023414582 0.6639381 5.157793 6.8651943 0.31061044 -6526.953 -22938.242
-0.0145380795 2.5024009 0.7382543 -0.17738488 0.036664486 4.3738813 6.1234007 0.14384243
-3195.3586 -11230.299 -0.0636777 0.9784088 0.117588654 -0.15813202 0.03612414 2.6332543
3.0694826 -0.10505544 -1035.4115 -3638.0925 0.27184883 0.3838246 0.103557944 0.20985374
-0.18707284 0.742294 1.3251053 -0.27672565 132.93675 466.67474 0.1654737 -0.0936756
-0.13321805 0.20657185 -0.23389135 0.08503114 0.20692816 -0.0699366 108.29613 380.2399
0.3101215 -0.121263735 -0.19100893 0.25508913 -0.09463646 -0.118111774 0.20052618 -0.21290237
408.14508 1434.084 -0.14962856 0.28710142 -0.28699264 -0.29387873 0.057180755 -0.120159596
0.003002502 -0.23283628 287.6894 1010.1604 -0.15188746 -0.06749497 -0.12962504 0.207284
-0.03746077 -0.20598194 -0.12215349 0.19486555 -334.0084 -1173.2721 0.2948753 -0.070458196
-0.23876387 0.16408041 0.0055776825 0.15261948 -0.20487383 0.13333505 269.7792 948.7483
0.18112513 0.1392306 0.28357637 -0.07695615 -0.023440173 0.01778637 0.14207679 0.29608503
00000000: dc36 c4c3 f46d acc4 249c dc3d 01ad cabd
00000010: 88ad 983e d883 04bd 2400 5dbe d685 3f3e
00000020: c3d0 a6be 7a31 d2bd 4b6a 32c3 a6e5 1cc4
00000030: 4432 a23d b646 843e 5a02 ec3d 4462 bebd
00000040: ad2d 97be a465 10be c48a 67be 8ca5 91bd
00000050: c6f1 6dc3 84b4 50c4 4619 88be d47f 9e3e
00000060: 7dd7 a4bd b804 5fbd 5e39 713e d4b0 8abe
00000070: 1094 ae3d 180b 2c3e 15a3 3443 8d7b 1e44
00000080: 80cf 4dbb b72d 963e 0f03 803e dc69 343e
00000090: ca0d 2ebe c023 8dbe 40c4 733a 329c 023e
000000a0: 932a 6543 3228 4944 028f 063e 5245 763e
000000b0: 3d75 223e f303 813e ce1d 503e e45b eb3c
000000c0: a6c9 b23d 9623 93bd 820a 9bc3 2645 88c4
000000d0: 7c40 8cbe 03f1 13be 7661 5ebd beeb febd
000000e0: 3a15 30be ec06 743e e825 d73e 9448 e9bd
000000f0: cb06 53c4 f264 39c5 ffcb 9e3e ecd3 b43e
00000100: b68e 193e e6f0 5f3e d31c 44be a453 7d3f
00000110: 0eef ad3f 280b 0e3e 0ada 21c5 3e33 0ec6
00000120: 8bec 28be 5cd2 a73f 86f8 813e dc42 323e
00000130: 6c03 593e 37db f33f dece 3340 4545 91be
00000140: 3f3b 42c5 6baf 2ac6 014e 943e 4448 8b3f
00000150: eef7 543e ac0d 343e 5a06 833e 47f5 0b40
00000160: 5743 4e40 92fa 433e 2f6f 78c5 a645 5ac6
00000170: 4299 92bd 882a ce3f 3961 e33e bceb 1f3e
00000180: c80c 023d d19f 2d40 b971 5940 ae44 753e
00000190: 95a3 0ac6 e79e f3c6 70f7 883d d6e6 5040
000001a0: a854 ed3e 5a0f 593e 8154 d03e 190f be40
000001b0: 4124 0741 a516 913e fb6f 31c6 96e7 1bc7
000001c0: e85c 313d 6894 8b40 42f2 263f 19f4 31be
000001d0: 025f 433f 2e91 f740 98c2 2741 761e 3a3e
000001e0: 11b2 24c6 8fb6 10c7 37b1 56be ad90 7140
000001f0: aa0b 153f 9670 04be f8b5 0f3f 1762 ee40
00000200: c0cd 2741 40f1 73bd 83df 1fc6 0179 0cc7
00000210: dafc 2f3e 71e3 6640 c5dd f83e 3083 c6bd
00000220: ec1b ce3e 7266 e840 0966 1841 1c36 003e
00000230: 73f3 eac5 f66f cec6 52ee 733e 4336 1d40
00000240: fe1f 3e3f f0cf bfbc d9f7 293f a40c a540
00000250: acaf db40 5508 9f3e a0f7 cbc5 7c34 b3c6
00000260: 2031 6ebc 5627 2040 3cfe 3c3f 62a4 35be
00000270: 802d 163d d6f6 8b40 e6f2 c340 6e4b 133e
00000280: bdb5 47c5 3279 2fc6 7469 82bd 0079 7a3f
00000290: 52d2 f03d 5ced 21be e8f6 133d 3d87 2840
000002a0: 6772 4440 4e27 d7bd 2b6d 81c4 7b61 63c5
000002b0: c52f 8b3e a884 c43e 3016 d43d e6e3 563e
000002c0: 0690 3fbe fb06 3e3f 0d9d a93f fcae 8dbe
000002d0: cfef 0443 5e56 e943 f071 293e fed8 bfbd
000002e0: 506a 08be 9287 533e 3781 6fbe ce24 ae3d
000002f0: fae4 533e ec3a 8fbd 9e97 d842 b51e be43
00000300: 3fc8 9e3e 1f59 f8bd d897 43be 0b9b 823e
00000310: c3d0 c1bd 96e4 f1bd bc56 4d3e 1403 5abe
00000320: 9212 cc43 b042 b344 3b38 19be f5fe 923e
00000330: b3f0 92be 4677 96be 5e36 6a3d 3c16 f6bd
00000340: a0c5 443b a26c 6ebe 3ed8 8f43 448a 7c44
00000350: 6388 1bbe ce3a 8abd 6dbc 04be 4242 543e
00000360: 7770 19bd eeec 52be 9c2b fabd d68a 473e
00000370: 1301 a7c3 b5a8 92c4 e5f9 963e 634c 90bd
00000380: 847e 74be b204 283e fec4 b63b 4848 1c3e
00000390: 72ca 51be fc88 083e bde3 8643 e42f 6d44
000003a0: de78 393e 7792 0e3e ec30 913e 309b 9dbd
000003b0: 9b05 c0bc b9b4 913c 947c 113e 7598 973e

l2.bias f4 [24]
-7.670497e-05 -8.788435e-05 -0.00011297301 -4.24241e-06 0.00014402984 16.585785 91.12453 224.31827
272.8758 295.4297 696.26556 883.9557 853.77 806.7925 581.52844 511.6818
264.63785 87.22198 -2.3267025e-05 8.87224e-05 6.7881265e-05 0.00010418193 -0.00016940908 0.00013716455
00000000: abdc a0b8 8d4e b8b8 eceb ecb8 065a 8eb6
00000010: b706 1739 b0af 8441 c23f b642 7a51 6043
00000020: 1a70 8843 00b7 9343 ff10 2e44 2afd 5c44
00000030: 4871 5544 b8b2 4944 d261 1144 45d7 ff43
00000040: a551 8443 a771 ae42 8e2d c3b7 7a10 ba38
00000050: 7a5b 8e38 3f7c da38 67a3 31b9 d4d3 0f39
