prediction_wind_solar_price_load/wind_mlp.pth (torch_old, 8952 bytes, 6 tensors)

l1_in.weight f4 [40, 24]
-0.14418904 -0.069917634 -0.06981401 0.20001829 -0.19030619 0.022799172 0.17345676 0.053172674
-0.20279834 -0.20342684 0.15772812 0.16098359 0.18400805 -0.09724017 0.101062655 -0.18945976
-0.10895533 0.074545115 -0.13355912 -0.17801654 0.15219629 0.10823139 0.09424433 0.433547
-0.10240763 0.23019171 -0.105736874 -0.18128796 0.068996035 -0.09602256 0.17408836 0.09420102
0.1461315 0.0058371923 0.13300602 -0.118348256 -0.1377526 -0.1528932 0.18220916 0.0058150943
0.1658752 0.040937003 0.14192171 -0.10905592 0.1727462 -0.06754602 0.1186413 0.18681866
0.03523922 -0.09127547 0.13593985 0.16609398 0.036753874 0.14120053 0.09439172 -0.1562444
-0.17087434 -0.09496325 -0.05971472 -0.17112608 -0.07769919 -0.17219308 -0.0065309457 0.011802942
0.06795411 0.10346932 -0.061892122 -0.13650544 0.02548445 0.16841947 0.24309738 0.19109195
0.15776017 0.01564901 0.14106235 0.031054776 -0.14999641 0.1621843 -0.11914512 -0.102380864
-0.1700612 0.024846919 0.15456755 0.12859347 -0.024190474 0.17525843 -0.1829244 0.12912495
-0.07807168 -0.08816406 -0.09262725 0.120239474 -0.11007269 0.04650908 0.18574837 0.4152256
-0.05881551 0.119179845 0.095473886 0.061755393 0.030227212 -0.010800223 -0.1255269 0.10939797
-0.1916398 -0.08184726 -0.13381954 -0.20971069 -0.18871923 -0.052087728 0.124232285 0.0004630711
0.13444398 0.1006738 0.091690704 0.18663163 -0.17622718 -0.14208548 0.10504059 -0.16990973
0.1404244 0.10945338 0.060404968 -0.16643243 0.07741415 0.12127327 -0.096373774 -0.14897981
0.17957638 -0.13521358 -0.07715748 0.06923285 0.03574304 -0.19694254 -0.100453 0.07580581
-0.13089426 -0.11591732 0.1499895 -0.07204728 -0.019806338 0.04424413 0.18235774 0.1406141
-0.06370178 -0.006247431 -0.177863 -0.150436 0.06739488 -0.02735044 0.09133217 0.16632462
0.15163568 -0.13549545 -0.007963434 -0.19664623 -0.0718575 -0.011494607 0.12207258 -0.08703663
-0.15248896 -0.06851159 -0.14012444 0.115413755 0.15340003 0.057967722 -0.19017822 0.13130182
-0.13176621 -0.18498747 0.13260096 0.10270584 -0.11461234 -0.18478686 -0.106745206 -0.034215212
-0.012065738 -0.07478647 -0.021772683 0.0689013 -0.1807278 0.190274 -0.15978801 -0.00809519
0.03994727 0.025504515 -0.18914418 0.021947712 -0.09865865 -0.01943484 -0.03772293 0.16731748
0.023911402 0.010504216 -0.109237514 0.06282517 0.13298362 0.042146996 -0.17634514 0.039378703
-0.0549369 -0.15124467 0.029036522 -0.01961781 0.048821867 -0.16693956 -0.07486051 -0.017801702
-0.008106679 0.036563292 -0.04798056 -0.19015132 -0.18530244 -0.16346782 0.15171269 -0.20269921
-0.15349498 -0.14112905 -0.17773487 -0.2025762 0.05534458 0.04611987 -0.17051971 0.09583661
0.016394109 -0.14661172 -0.009574965 -0.1911788 -0.044061735 -0.17126429 -0.12980771 -0.19633977
0.106279075 0.15443087 0.088626325 0.0074170977 0.09329149 -0.05845855 -0.19035979 -0.12509276
0.097697705 0.066361785 0.16068229 -0.18982503 0.028101243 0.13023636 0.054591533 -0.13772094
0.08788802 0.08283598 -0.09009021 0.1249806 -0.16476783 0.20758994 -0.095137686 0.013598197
00000000: 4ba6 13be fa30 8fbd a6fa 8ebd 98d1 4c3e
00000010: a0df 42be 54c5 ba3c a69e 313e 97cb 593d
00000020: 5eaa 4fbe 204f 50be 7b83 213e e2d8 243e
00000030: 9b6c 3c3e db25 c7bd f0f9 ce3d bd01 42be
00000040: f923 dfbd 1cab 983d b9c3 08be f849 36be
00000050: 58d9 1b3e 6ba8 dd3d 2c03 c13d dff9 dd3e
00000060: 17bb d1bd 60b7 6b3e 938c d8bd 8da3 39be
00000070: cb4d 8d3d 7aa7 c4bd 3844 323e 77ec c03d
00000080: 7fa3 153e eb45 bf3b bb32 083e 9260 f2bd
00000090: 040f 0dbe 0990 1cbe 0a95 3a3e 8c8c be3b
000000a0: 30db 293e 8fad 273d ed53 113e b658 dfbd
000000b0: 61e4 303e 9155 8abd 36fa f23d 644d 3f3e
000000c0: 0057 103d a2ee babd d133 0b3e 8a14 2a3e
000000d0: 3b8b 163d df96 103e 7250 c13d 88fe 1fbe
000000e0: aff9 2ebe 187c c2bd 6c97 74bd ad3b 2fbe
000000f0: c120 9fbd 6253 30be 8b01 d6bb 2061 413c
00000100: 862b 8b3d b9e7 d33d 9882 7dbd 15c8 0bbe
00000110: c4c4 d03c 2776 2c3e 85ee 783e 9cad 433e
00000120: e28b 213e 5a32 803c a672 103e 9666 fe3c
00000130: a998 19be a413 263e 5b02 f4bd 0fad d1bd
00000140: 8624 2ebe c48b cb3c f546 1e3e 02ae 033e
00000150: 1a2b c6bc f276 333e 8950 3bbe 5539 043e
00000160: 0ce4 9fbd 5c8f b4bd 5bb3 bdbd 1d40 f63d
00000170: ca6d e1bd 4e80 3e3d d234 3e3e 7398 d43e
00000180: 88e8 70bd 9014 f43d d087 c33d 39f3 7c3d
00000190: 0f9f f73c 6bf3 30bc 208a 00be 0b0c e03d
000001a0: 393d 44be 899f a7bd fd07 09be 66be 56be
000001b0: 9d3f 41be f159 55bd 7f6d fe3d 5ac8 f239
000001c0: afab 093e 112e ce3d 56c8 bb3d 5d1c 3f3e
000001d0: e674 34be db7e 11be 851f d73d d1fc 2dbe
000001e0: 6acb 0f3e 1829 e03d 336b 773d 436d 2abe
000001f0: 4f8b 9e3d 1f5e f83d 9d5f c5bd 2a8e 18be
00000200: dfe2 373e 6e75 0abe be04 9ebd f4c9 8d3d
00000210: 4b67 123d 4eab 49be 4dba cdbd 1440 9b3d
00000220: 2509 06be 0f66 edbd d996 193e 868d 93bd
00000230: e740 a2bc 5539 353d fdbb 3a3e 25fd 0f3e
00000240: 1476 82bd 40b7 ccbb b821 36be e50b 1abe
00000250: 5406 8a3d 080e e0bc 5c0c bb3d 0051 2a3e
00000260: 6246 1b3e 52bf 0abe 1079 02bc a15d 49be
00000270: 062a 93bd e053 3cbc 3001 fa3d 4340 b2bd
00000280: 1126 1cbe ce4f 8cbd c87c 0fbe 0c5e ec3d
00000290: e614 1d3e 906f 6d3d 14be 42be fc73 063e
000002a0: b9ed 06be 5b6d 3dbe 8cc8 073e 7057 d23d
000002b0: e0b9 eabd c438 3dbe 3b9d dabd 4025 0cbd
000002c0: 60af 45bc a629 99bd a05c b2bc 201c 8d3d
000002d0: b510 39be 30d7 423e 789f 23be b0a1 04bc
000002e0: c09f 233d d8ee d03c 03af 41be b0cb b33c
000002f0: 8c0d cabd d035 9fbc 5c83 1abd 4655 2b3e
00000300: d8e1 c33c e019 2c3c ebb7 dfbd 7caa 803d
00000310: dc2c 083e 54a2 2c3d d293 34be 904b 213d
00000320: 8405 61bd e2df 1abe 00de ed3c 88b5 a0bc
00000330: 70f9 473d 34f2 2abe 7850 99bd e0d4 91bc
00000340: e0d1 04bc 64c3 153d 4487 44bd 07b7 42be
00000350: ecbf 3dbe 1c64 27be 925a 1b3e 6290 4fbe
00000360: ca2d 1dbe 2284 10be 2100 36be 2370 4fbe
00000370: 00b1 623d 30e8 3c3d b89c 2ebe fc45 c43d
00000380: f04c 863c 6221 16be 50e0 1cbc 60c4 43be
00000390: 147a 34bd e85f 2fbe 50ec 04be 4b0d 49be
000003a0: d8a8 d93d 2023 1e3e b881 b53d 200b f33b
000003b0: 9c0f bf3d 3c72 6fbd aded 42be 5118 00be
000003c0: bc15 c83d b0e8 873d e689 243e 7e61 42be
000003d0: 9434 e63c ae5c 053e 5f9b 5f3d b806 0dbe
000003e0: a2fe b33d e9a5 a93d 3781 b8bd d4f5 ff3d
000003f0: e6b8 28be 7592 543e 8cd7 c2bd f9ca 5e3c

l1_in.bias f4 [40]
0.05718033 0.16058755 -0.017591435 0.093402766 -0.11489546 -0.070367225 -0.19696073 -0.19895421
-0.10141062 0.03984666 -0.09469057 0.0680508 -0.025760688 0.11870694 -0.09843588 -0.0702575
-0.04158005 -0.0054735923 -0.17508882 -0.092758544 -0.19988729 0.11687854 0.22983655 -0.11486119
0.24215946 0.19546811 -0.025250943 0.11990407 0.17420483 0.19413206 0.0025905669 0.07262922
-0.12325544 0.14091857 -0.030457092 -0.00017243075 0.1096425 0.23641029 0.17459172 0.20527874
00000000: ec35 6a3d 1071 243e ea1b 90bc f349 bf3d
00000010: 504e ebbd b11c 90bd 13b0 49be a7ba 4bbe
00000020: 5fb0 cfbd 4036 233d 21ed c1bd 385e 8b3d
00000030: 1408 d3bc a01c f33d c098 c9bd 2ae3 8fbd
00000040: d84f 2abd d25b b3bb 7c4a 33be 31f8 bdbd
00000050: 41af 4cbe 045e ef3d 465a 6b3e 583c ebbd
00000060: a6f8 773e cb28 483e 11db cebc 4490 f53d
00000070: c062 323e 8eca 463e 80c6 293b a1be 943d
00000080: 596d fcbd f54c 103e 2781 f9bc 87ce 34b9
00000090: 3f8c e03d 8a15 723e 2cc8 323e 9734 523e

l1_out.inplace.weight f4 [40, 24]
-0.14418904 -0.069917634 -0.06981401 0.20001829 -0.19030619 0.022799172 0.17345676 0.053172674
-0.20279834 -0.20342684 0.15772812 0.16098359 0.18400805 -0.09724017 0.101062655 -0.18945976
-0.10895533 0.074545115 -0.13355912 -0.17801654 0.15219629 0.10823139 0.09424433 0.433547
-0.10240763 0.23019171 -0.105736874 -0.18128796 0.068996035 -0.09602256 0.17408836 0.09420102
0.1461315 0.0058371923 0.13300602 -0.118348256 -0.1377526 -0.1528932 0.18220916 0.0058150943
0.1658752 0.040937003 0.14192171 -0.10905592 0.1727462 -0.06754602 0.1186413 0.18681866
0.03523922 -0.09127547 0.13593985 0.16609398 0.036753874 0.14120053 0.09439172 -0.1562444
-0.17087434 -0.09496325 -0.05971472 -0.17112608 -0.07769919 -0.17219308 -0.0065309457 0.011802942
0.06795411 0.10346932 -0.061892122 -0.13650544 0.02548445 0.16841947 0.24309738 0.19109195
0.15776017 0.01564901 0.14106235 0.031054776 -0.14999641 0.1621843 -0.11914512 -0.102380864
-0.1700612 0.024846919 0.15456755 0.12859347 -0.024190474 0.17525843 -0.1829244 0.12912495
-0.07807168 -0.08816406 -0.09262725 0.120239474 -0.11007269 0.04650908 0.18574837 0.4152256
-0.05881551 0.119179845 0.095473886 0.061755393 0.030227212 -0.010800223 -0.1255269 0.10939797
-0.1916398 -0.08184726 -0.13381954 -0.20971069 -0.18871923 -0.052087728 0.124232285 0.0004630711
0.13444398 0.1006738 0.091690704 0.18663163 -0.17622718 -0.14208548 0.10504059 -0.16990973
0.1404244 0.10945338 0.060404968 -0.16643243 0.07741415 0.12127327 -0.096373774 -0.14897981
0.17957638 -0.13521358 -0.07715748 0.06923285 0.03574304 -0.19694254 -0.100453 0.07580581
-0.13089426 -0.11591732 0.1499895 -0.07204728 -0.019806338 0.04424413 0.18235774 0.1406141
-0.06370178 -0.006247431 -0.177863 -0.150436 0.06739488 -0.02735044 0.09133217 0.16632462
0.15163568 -0.13549545 -0.007963434 -0.19664623 -0.0718575 -0.011494607 0.12207258 -0.08703663
-0.15248896 -0.06851159 -0.14012444 0.115413755 0.15340003 0.057967722 -0.19017822 0.13130182
-0.13176621 -0.18498747 0.13260096 0.10270584 -0.11461234 -0.18478686 -0.106745206 -0.034215212
-0.012065738 -0.07478647 -0.021772683 0.0689013 -0.1807278 0.190274 -0.15978801 -0.00809519
0.03994727 0.025504515 -0.18914418 0.021947712 -0.09865865 -0.01943484 -0.03772293 0.16731748
0.023911402 0.010504216 -0.109237514 0.06282517 0.13298362 0.042146996 -0.17634514 0.039378703
-0.0549369 -0.15124467 0.029036522 -0.01961781 0.048821867 -0.16693956 -0.07486051 -0.017801702
-0.008106679 0.036563292 -0.04798056 -0.19015132 -0.18530244 -0.16346782 0.15171269 -0.20269921
-0.15349498 -0.14112905 -0.17773487 -0.2025762 0.05534458 0.04611987 -0.17051971 0.09583661
0.016394109 -0.14661172 -0.009574965 -0.1911788 -0.044061735 -0.17126429 -0.12980771 -0.19633977
0.106279075 0.15443087 0.088626325 0.0074170977 0.09329149 -0.05845855 -0.19035979 -0.12509276
0.097697705 0.066361785 0.16068229 -0.18982503 0.028101243 0.13023636 0.054591533 -0.13772094
0.08788802 0.08283598 -0.09009021 0.1249806 -0.16476783 0.20758994 -0.095137686 0.013598197
00000000: 4ba6 13be fa30 8fbd a6fa 8ebd 98d1 4c3e
00000010: a0df 42be 54c5 ba3c a69e 313e 97cb 593d
00000020: 5eaa 4fbe 204f 50be 7b83 213e e2d8 243e
00000030: 9b6c 3c3e db25 c7bd f0f9 ce3d bd01 42be
00000040: f923 dfbd 1cab 983d b9c3 08be f849 36be
00000050: 58d9 1b3e 6ba8 dd3d 2c03 c13d dff9 dd3e
00000060: 17bb d1bd 60b7 6b3e 938c d8bd 8da3 39be
00000070: cb4d 8d3d 7aa7 c4bd 3844 323e 77ec c03d
00000080: 7fa3 153e eb45 bf3b bb32 083e 9260 f2bd
00000090: 040f 0dbe 0990 1cbe 0a95 3a3e 8c8c be3b
000000a0: 30db 293e 8fad 273d ed53 113e b658 dfbd
000000b0: 61e4 303e 9155 8abd 36fa f23d 644d 3f3e
000000c0: 0057 103d a2ee babd d133 0b3e 8a14 2a3e
000000d0: 3b8b 163d df96 103e 7250 c13d 88fe 1fbe
000000e0: aff9 2ebe 187c c2bd 6c97 74bd ad3b 2fbe
000000f0: c120 9fbd 6253 30be 8b01 d6bb 2061 413c
00000100: 862b 8b3d b9e7 d33d 9882 7dbd 15c8 0bbe
00000110: c4c4 d03c 2776 2c3e 85ee 783e 9cad 433e
00000120: e28b 213e 5a32 803c a672 103e 9666 fe3c
00000130: a998 19be a413 263e 5b02 f4bd 0fad d1bd
00000140: 8624 2ebe c48b cb3c f546 1e3e 02ae 033e
00000150: 1a2b c6bc f276 333e 8950 3bbe 5539 043e
00000160: 0ce4 9fbd 5c8f b4bd 5bb3 bdbd 1d40 f63d
00000170: ca6d e1bd 4e80 3e3d d234 3e3e 7398 d43e
00000180: 88e8 70bd 9014 f43d d087 c33d 39f3 7c3d
00000190: 0f9f f73c 6bf3 30bc 208a 00be 0b0c e03d
000001a0: 393d 44be 899f a7bd fd07 09be 66be 56be
000001b0: 9d3f 41be f159 55bd 7f6d fe3d 5ac8 f239
000001c0: afab 093e 112e ce3d 56c8 bb3d 5d1c 3f3e
000001d0: e674 34be db7e 11be 851f d73d d1fc 2dbe
000001e0: 6acb 0f3e 1829 e03d 336b 773d 436d 2abe
000001f0: 4f8b 9e3d 1f5e f83d 9d5f c5bd 2a8e 18be
00000200: dfe2 373e 6e75 0abe be04 9ebd f4c9 8d3d
00000210: 4b67 123d 4eab 49be 4dba cdbd 1440 9b3d
00000220: 2509 06be 0f66 edbd d996 193e 868d 93bd
00000230: e740 a2bc 5539 353d fdbb 3a3e 25fd 0f3e
00000240: 1476 82bd 40b7 ccbb b821 36be e50b 1abe
00000250: 5406 8a3d 080e e0bc 5c0c bb3d 0051 2a3e
00000260: 6246 1b3e 52bf 0abe 1079 02bc a15d 49be
00000270: 062a 93bd e053 3cbc 3001 fa3d 4340 b2bd
00000280: 1126 1cbe ce4f 8cbd c87c 0fbe 0c5e ec3d
00000290: e614 1d3e 906f 6d3d 14be 42be fc73 063e
000002a0: b9ed 06be 5b6d 3dbe 8cc8 073e 7057 d23d
000002b0: e0b9 eabd c438 3dbe 3b9d dabd 4025 0cbd
000002c0: 60af 45bc a629 99bd a05c b2bc 201c 8d3d
000002d0: b510 39be 30d7 423e 789f 23be b0a1 04bc
000002e0: c09f 233d d8ee d03c 03af 41be b0cb b33c
000002f0: 8c0d cabd d035 9fbc 5c83 1abd 4655 2b3e
00000300: d8e1 c33c e019 2c3c ebb7 dfbd 7caa 803d
00000310: dc2c 083e 54a2 2c3d d293 34be 904b 213d
00000320: 8405 61bd e2df 1abe 00de ed3c 88b5 a0bc
00000330: 70f9 473d 34f2 2abe 7850 99bd e0d4 91bc
00000340: e0d1 04bc 64c3 153d 4487 44bd 07b7 42be
00000350: ecbf 3dbe 1c64 27be 925a 1b3e 6290 4fbe
00000360: ca2d 1dbe 2284 10be 2100 36be 2370 4fbe
00000370: 00b1 623d 30e8 3c3d b89c 2ebe fc45 c43d
00000380: f04c 863c 6221 16be 50e0 1cbc 60c4 43be
00000390: 147a 34bd e85f 2fbe 50ec 04be 4b0d 49be
000003a0: d8a8 d93d 2023 1e3e b881 b53d 200b f33b
000003b0: 9c0f bf3d 3c72 6fbd aded 42be 5118 00be
000003c0: bc15 c83d b0e8 873d e689 243e 7e61 42be
000003d0: 9434 e63c ae5c 053e 5f9b 5f3d b806 0dbe
000003e0: a2fe b33d e9a5 a93d 3781 b8bd d4f5 ff3d
000003f0: e6b8 28be 7592 543e 8cd7 c2bd f9ca 5e3c

l1_out.inplace.bias f4 [40]
0.05718033 0.16058755 -0.017591435 0.093402766 -0.11489546 -0.070367225 -0.19696073 -0.19895421
-0.10141062 0.03984666 -0.09469057 0.0680508 -0.025760688 0.11870694 -0.09843588 -0.0702575
-0.04158005 -0.0054735923 -0.17508882 -0.092758544 -0.19988729 0.11687854 0.22983655 -0.11486119
0.24215946 0.19546811 -0.025250943 0.11990407 0.17420483 0.19413206 0.0025905669 0.07262922
-0.12325544 0.14091857 -0.030457092 -0.00017243075 0.1096425 0.23641029 0.17459172 0.20527874
00000000: ec35 6a3d 1071 243e ea1b 90bc f349 bf3d
00000010: 504e ebbd b11c 90bd 13b0 49be a7ba 4bbe
00000020: 5fb0 cfbd 4036 233d 21ed c1bd 385e 8b3d
00000030: 1408 d3bc a01c f33d c098 c9bd 2ae3 8fbd
00000040: d84f 2abd d25b b3bb 7c4a 33be 31f8 bdbd
00000050: 41af 4cbe 045e ef3d 465a 6b3e 583c ebbd
00000060: a6f8 773e cb28 483e 11db cebc 4490 f53d
00000070: c062 323e 8eca 463e 80c6 293b a1be 943d
00000080: 596d fcbd f54c 103e 2781 f9bc 87ce 34b9
00000090: 3f8c e03d 8a15 723e 2cc8 323e 9734 523e

l2.weight f4 [24, 40]
0.23262742 0.12599157 -0.07060036 0.16517723 0.068988234 0.01981859 -0.0027255565 0.0067433715
0.08400667 0.030194089 -0.02852949 0.117709674 0.02940404 -0.13915312 -0.08430595 -0.1226881
-0.00466606 0.22268486 0.12809576 -0.10054121 -0.049249414 -0.008375756 0.16838576 0.15658446
0.012047259 -0.033436406 -0.040833693 -0.021127818 0.26114804 -0.09770765 -0.07661915 0.11483011
-0.15885323 -0.051435716 0.07738226 0.03705243 0.06808409 0.11431328 0.09080058 0.13349338
0.15484467 -0.054472238 0.07249997 0.06316809 -0.070302874 0.10704754 0.044684052 -0.11834966
0.0042781383 -0.13439654 -0.08120192 0.08987047 0.055442896 0.081746995 -0.14663225 0.12241499
0.093555704 0.25035375 -0.05807812 0.10674776 0.114095315 0.07406911 -0.011993179 -0.06904124
0.1417177 0.035335388 0.07888375 0.15024121 0.13681689 0.12562707 -0.077418126 -0.039169688
0.031000827 0.03537538 -0.08112545 0.06284463 -0.10796698 0.17250939 0.051432014 0.20905837
0.15724276 -0.09111943 0.041936476 0.0123908445 0.1275688 0.03824615 -0.087250784 0.018064633
-0.030223668 -0.070842475 -0.09413652 -0.077090204 0.036596145 0.107059404 -0.028302362 0.06320481
-0.056763314 0.11290993 0.12120069 -0.1033434 0.02437377 -0.080016814 0.20688619 0.051576562
0.17451715 0.18975891 -0.15555826 0.104798555 0.28250954 0.1103072 -0.08416229 0.10170697
-0.061529536 0.17241196 -0.069634296 0.085097015 0.06528839 0.085176066 0.056071132 0.060246516
-0.034600448 0.19302487 0.04987938 -0.01714873 -0.010201398 0.17222458 0.05678983 -0.006697923
-0.00936307 0.08376694 0.09613759 0.1800818 0.11268606 0.1170793 -0.111141734 -0.015138194
0.13132842 0.110203154 0.005987968 -0.056333464 -0.13262103 -0.026469694 0.16854982 -0.13765232
-0.042585663 0.0018073175 0.042568974 0.15917161 0.24273504 -0.030812595 0.05454479 -0.09732052
-0.15817046 0.1680719 -0.06442148 0.13099788 -0.05622698 0.06204362 0.060550988 0.0030848682
0.15240705 -0.10031939 0.062180594 0.07710869 -0.11710374 -0.05955821 0.009780183 0.060943484
-0.14684914 -0.017184988 -0.02304449 -0.028975947 0.19557112 -0.01450035 0.15651831 -0.08578304
-0.09297329 -0.048178874 0.09056715 0.037029214 -0.12980582 0.0043478976 0.20672822 0.11438897
0.18810405 -0.09824895 0.1121089 0.0038976253 0.22888972 0.047378823 -0.07267696 -0.045976255
0.012520957 0.071402855 -0.014106882 -0.04179312 0.0039563677 0.25442043 -0.09422967 0.09973079
0.18823187 0.018055594 0.1407514 0.21120146 0.057485037 0.0035111269 -0.106362194 0.10308914
-0.09119238 -0.07076512 0.06131288 0.01830538 0.012335345 -0.084699884 0.11690539 0.038257748
0.057405844 0.14289984 0.0027400341 0.11284065 -0.028027475 0.1412393 0.037112106 -0.08118475
0.21421117 -0.0033113768 0.13018689 -0.028526586 0.2198917 -0.045304175 -0.10786758 0.0386242
-0.16180103 -0.019997818 -0.113119945 0.107288234 -0.056245316 -0.036460996 0.039287478 0.17532663
0.16119733 0.16162439 -0.022131737 0.18363275 0.011365343 0.062355824 0.12902437 -0.09261562
-0.06267274 0.035734013 0.15076622 -0.044011157 -0.06906318 -0.14111659 -0.076518886 0.10063805
00000000: e235 6e3e ef03 013e ec96 90bd 3824 293e
00000010: b449 8d3d 985a a23c 409f 32bb 80f7 dc3b
00000020: b00b ac3d 9859 f73c adb6 e9bc c511 f13d
00000030: bee0 f03c 287e 0ebe 99a8 acbd e643 fbbd
00000040: c0e5 98bb 8007 643e 892b 033e 8de8 cdbd
00000050: c1b9 49bd 783a 09bc 516d 2c3e ad57 203e
00000060: de61 453c 9df4 08bd 3b41 27bd 3f14 adbc
00000070: 32b5 853e f31a c8bd 80ea 9cbd 0c2c eb3d
00000080: 6caa 22be 42ae 52bd 977a 9e3d 4ac4 173d
00000090: ac6f 8b3d 151d ea3d a8f5 b93d 7db2 083e
000000a0: 9a8f 1e3e 481e 5fbd dd7a 943d 465e 813d
000000b0: f4fa 8fbd be3b db3d a006 373d 4e61 f2bd
000000c0: a02f 8c3b 3f9f 09be 314d a6bd 020e b83d
000000d0: 1718 633d f86a a73d c426 16be b6b4 fa3d
000000e0: 229a bf3d 5e2e 803e 53e3 6dbd 929e da3d
000000f0: ceaa e93d 8cb1 973d 0a7f 44bc 7e65 8dbd
00000100: 721e 113e d7bb 103d ce8d a13d d5d8 193e
00000110: ba19 0c3e 62a4 003e 658d 9ebd 6570 20bd
00000120: 72f5 fd3c c6e5 103d 1a25 a6bd afb4 803d
00000130: cb1d ddbd 4da6 303e 60aa 523d 6613 563e
00000140: 3f04 213e d39c babd 95c5 2b3d f802 4b3c
00000150: 65a1 023e ffa7 1c3d 8ab0 b2bd 48fc 933c
00000160: a097 f7bc dc15 91bd a6ca c0bd 78e1 9dbd
00000170: d7e5 153d f641 db3d 5bda e7bc 8671 813d
00000180: a680 68bd 523d e73d 1138 f83d b4a5 d3bd
00000190: 80ab c73c dbdf a3bd f9d9 533e f241 533d
000001a0: a0b4 323e 2950 423e aa4a 1fbe a0a0 d63d
000001b0: 17a5 903e bee8 e13d 475d acbd be4b d03d
000001c0: 6506 7cbd c38c 303e 6d9c 8ebd 5847 ae3d
000001d0: ebb5 853d ca70 ae3d d8aa 653d 0dc5 763d
000001e0: 33b9 0dbd 50a8 453e 524e 4c3d 7e7b 8cbc
000001f0: c423 27bc a45b 303e 749c 683d 407a dbbb
00000200: 9067 19bc 008e ab3d c9e3 c43d 5d67 383e
00000210: f3c7 e63d 46c7 ef3d 479e e3bd 3006 78bc
00000220: f57a 063e 31b2 e13d b736 c43b ebbd 66bd
00000230: cfcd 07be f9d6 d8bc 5398 2c3e bbf4 0cbe
00000240: 4e6e 2ebd 83e3 ec3a ce5c 2e3d e2fd 223e
00000250: 898f 783e b26a fcbc 5c6a 5f3d fb4f c7bd
00000260: 70f7 21be 0a1b 2c3e 69ef 83bd 4f24 063e
00000270: 434e 66bd 7321 7e3d 5004 783d 802b 4a3b
00000280: 9810 1c3e 4174 cdbd 14b1 7e3d 29eb 9d3d
00000290: 16d4 efbd 4ff3 73bd 103d 203c e09f 793d
000002a0: 9f5f 16be 88c7 8cbc ccc7 bcbc f75e edbc
000002b0: cc43 483e e092 6dbc 5646 203e 05af afbd
000002c0: c868 bebd 3657 45bd 457b b93d f2ab 173d
000002d0: d1eb 04be cf78 8e3b 90b0 533e c444 ea3d
000002e0: 599e 403e bf36 c9bd 5a99 e53d 4d6f 7f3b
000002f0: 1162 6a3e 4c10 423d a8d7 94bd 9951 3cbd
00000300: b324 4d3c a93b 923d 8d20 67bc 432f 2bbd
00000310: 6ba4 813b 6543 823e 7cfb c0bd a83f cc3d
00000320: dbbf 403e 53e9 933c 2321 103e 3245 583e
00000330: 6e75 6b3d ef1a 663b 6cd4 d9bd 6620 d33d
00000340: 12c3 babd 4eed 90bd 3723 7b3d 2af5 953c
00000350: 301a 4a3c 2277 adbd 186c ef3d 28b4 1c3d
00000360: 6422 6b3d 5654 123e 2592 333b 0019 e73d
00000370: e099 e5bc 09a1 103e dd02 183d 3144 a6bd
00000380: 2c5a 5b3e af03 59bb b64f 053e 96b0 e9bc
00000390: 4a2b 613e df90 39bd aee9 dcbd 6934 1e3d
000003a0: 2baf 25be 77d2 a3bc 6eab e7bd efb9 db3d
000003b0: 7d61 66bd 2058 15bd e8eb 203d d388 333e
000003c0: ea10 253e dd80 253e 9e4d b5bc 390a 3c3e
000003d0: b435 3a3c d268 7f3d f71e 043e 42ad bdbd
000003e0: 915a 80bd d45d 123d 7662 1a3e 0b45 34bd
000003f0: ff70 8dbd de80 10be efb5 9cbd 521b ce3d

l2.bias f4 [24]
-0.08699459 0.024518495 -0.06476554 0.09273802 0.12198531 0.20757043 0.11057724 0.14622271
0.17970625 0.35368195 0.33864188 0.38178018 0.34194127 0.29868838 0.31358704 0.39625207
0.28872693 0.3048558 0.4593555 0.40290534 0.44113648 0.28477016 0.35274702 0.26452625
00000000: 382a b2bd 03db c83c cca3 84bd 6eed bd3d
00000010: 6fd3 f93d 588d 543e 5276 e23d 68bb 153e
00000020: ea04 383e cd15 b53e 7862 ad3e b178 c33e
00000030: ed12 af3e afed 983e 7b8e a03e 8de1 ca3e
00000040: 04d4 933e 0f16 9c3e a530 eb3e 9c49 ce3e
00000050: a4dc e13e 65cd 913e 429b b43e fc6f 873e
