prediction_wind_solar_price_load/wind_mlp.pth (torch_old, 8952 bytes, 6 tensors)

l1_in.weight f4 [40, 24]
00000000: 0cdf 13be 1d36 8fbd 6694 8ebd 143b 4d3e
00000010: 909d 42be 22a1 bb3c 4c93 313e 66ce 583d
00000020: 4e1f 50be cff6 50be accf 203e b218 243e
00000030: a59f 3b3e 22be c8bd b160 cd3d d9cc 42be
00000040: 192a dfbd 0837 9a3d a834 07be 48b9 34be
00000050: a46c 1d3e 72d4 e03d 984f be3d 10d5 db3e
00000060: 3c94 d3bd 8914 6b3e 123f d9bd e7b2 39be
00000070: e858 8d3d 2e72 c4bd df73 323e 31ee c03d
00000080: 7e74 153e 9fa1 b33b 41b0 073e 64b0 f3bd
00000090: c7dc 0dbe 8339 1dbe b90e 3a3e db52 b23b
000000a0: 67f3 293e f5f9 293d e461 123e 425a ddbd
000000b0: 90d5 313e 0f8f 88bd 2ce2 f13d 2452 3d3e
000000c0: f5ba 0c3d a15d bcbd c4ab 0a3e b4bb 293e
000000d0: 1f5b 153d 2158 103e 17ed c03d 681d 20be
000000e0: aa06 2fbe 7f6f c2bd 8792 74bd a23f 2fbe
000000f0: 2033 9fbd a847 30be 12fa d1bb 73b6 443c
00000100: bef2 8b3d c50d d53d 267b 7abd 5a1d 0bbe
00000110: e565 d53c 8ef3 2c3e b854 783e 7efc 413e
00000120: 56ad 203e 4e99 773c c536 103e 9617 ff3c
00000130: 77a0 19be 20ef 253e c985 f4bd deaa d2bd
00000140: a0e2 2ebe 03be c33c 7c2d 1d3e a474 023e
00000150: 8ffc d0bc 110a 323e 2ed2 3cbe afa5 023e
00000160: 6dfa a0bd fb91 b3bd 4ca1 babd e895 f93d
00000170: 45d1 ddbd 9f47 463d 17a6 3c3e c110 d23e
00000180: dbf1 70bd 0c14 f43d 4f8b c33d 7502 7d3d
00000190: 6caa f73c 0502 31bc 698d 00be c30b e03d
000001a0: 303a 44be 1d93 a7bd f902 09be 87ba 56be
000001b0: e53c 41be cd4a 55bd 2277 fe3d 4d85 fe39
000001c0: 22af 093e e62f ce3d 2cc5 bb3d 4619 3f3e
000001d0: 7e79 34be fb84 11be 8e13 d73d 9d02 2ebe
000001e0: 1c3f 0f3e 303e df3d 04f0 753d 5db5 2abe
000001f0: 8320 9e3d f719 f83d b77d c5bd 2eaa 18be
00000200: 60b9 373e a6ab 0abe f174 9ebd 4856 8d3d
00000210: 7b78 113d a6bf 49be 6f95 cdbd 37b3 9b3d
00000220: 06b9 05be dd96 ecbd 7015 1a3e 31da 92bd
00000230: 7b99 a0bc d57a 353d 12e9 393e 0547 0e3e
00000240: 1476 82bd 40b7 ccbb b821 36be e50b 1abe
00000250: 5406 8a3d 080e e0bc 5c0c bb3d 0051 2a3e
00000260: 6246 1b3e 52bf 0abe 1079 02bc a15d 49be
00000270: 062a 93bd e053 3cbc 3001 fa3d 4340 b2bd
00000280: 1126 1cbe ce4f 8cbd c87c 0fbe 0c5e ec3d
00000290: e614 1d3e 906f 6d3d 14be 42be fc73 063e
000002a0: b9ed 06be 5b6d 3dbe 8cc8 073e 7057 d23d
000002b0: e0b9 eabd c438 3dbe 3b9d dabd 4025 0cbd
000002c0: 60af 45bc a629 99bd a05c b2bc 201c 8d3d
000002d0: b510 39be 30d7 423e 789f 23be b0a1 04bc
000002e0: c09f 233d d8ee d03c 03af 41be b0cb b33c
000002f0: 8c0d cabd d035 9fbc 5c83 1abd 4655 2b3e
00000300: d8e1 c33c e019 2c3c ebb7 dfbd 7caa 803d
00000310: dc2c 083e 54a2 2c3d d293 34be 904b 213d
00000320: 8405 61bd e2df 1abe 00de ed3c 88b5 a0bc
00000330: 70f9 473d 34f2 2abe 7850 99bd e0d4 91bc
00000340: e0d1 04bc 64c3 153d 4487 44bd 07b7 42be
00000350: ecbf 3dbe 1c64 27be 925a 1b3e 6290 4fbe
00000360: ca2d 1dbe 2284 10be 2100 36be 2370 4fbe
00000370: 00b1 623d 30e8 3c3d b89c 2ebe fc45 c43d
00000380: f04c 863c 6221 16be 50e0 1cbc 60c4 43be
00000390: 147a 34bd e85f 2fbe 50ec 04be 4b0d 49be
000003a0: d8a8 d93d 2023 1e3e b881 b53d 200b f33b
000003b0: 9c0f bf3d 3c72 6fbd aded 42be 5118 00be
000003c0: 26cd c73d 81e6 873d dfab 243e 141c 42be
000003d0: b997 e83c 53b0 053e fb06 613d 30d0 0cbe
000003e0: b321 b43d 2281 a93d d6f5 b8bd 4831 ff3d
000003f0: 5643 29be 531f 543e 8690 c3bd de7a 5a3c
-0.14440554 -0.06992743 -0.069618985 0.20042068 -0.19005418 0.022903983 0.17341346 0.052931212
-0.20324442 -0.2040665 0.1570422 0.16025046 0.18322618 -0.0980189 0.10028208 -0.19023456
-0.10896701 0.07530028 -0.1320368 -0.17648804 0.15373474 0.10978021 0.09292525 0.4293599
-0.10331008 0.22957052 -0.10607733 -0.18134652 0.06901723 -0.095920905 0.17427014 0.094204314
0.1459522 0.005481913 0.1325083 -0.11898878 -0.13853751 -0.1535397 0.18169679 0.005442006
0.16596757 0.041498143 0.14295155 -0.10808231 0.17366624 -0.06667911 0.11810717 0.18488365
0.034357984 -0.09197546 0.13542086 0.1657551 0.036463853 0.14096119 0.09420221 -0.15636218
-0.17092386 -0.094939224 -0.059710052 -0.17114118 -0.07773423 -0.17214835 -0.0064079845 0.01200639
0.06833409 0.10403017 -0.0611526 -0.13585415 0.026049564 0.16889784 0.24251068 0.18943974
0.15691122 0.015112234 0.14083393 0.031139176 -0.15002619 0.162045 -0.1193958 -0.102864966
-0.17078638 0.023894316 0.15349382 0.12739807 -0.025511054 0.17386653 -0.18439552 0.12758516
-0.07860265 -0.08768078 -0.09112796 0.121867955 -0.108309306 0.048408147 0.18422733 0.41028407
-0.0588244 0.11917886 0.095480554 0.06176992 0.03023263 -0.010803704 -0.12553944 0.10939743
-0.19162822 -0.081823565 -0.1338004 -0.20969592 -0.18870886 -0.05207329 0.124250665 0.00048545972
0.13445714 0.1006773 0.09168467 0.18661985 -0.1762447 -0.14210884 0.10501777 -0.16993184
0.13988918 0.10900533 0.06004335 -0.16670747 0.07721045 0.121143274 -0.09643119 -0.14908668
0.17941809 -0.13542041 -0.077371486 0.069012225 0.03551529 -0.19702014 -0.10038268 0.07602542
-0.13058862 -0.115522124 0.1504724 -0.07170523 -0.019604435 0.044306595 0.18155316 0.1389428
-0.06370178 -0.006247431 -0.177863 -0.150436 0.06739488 -0.02735044 0.09133217 0.16632462
0.15163568 -0.13549545 -0.007963434 -0.19664623 -0.0718575 -0.011494607 0.12207258 -0.08703663
-0.15248896 -0.06851159 -0.14012444 0.115413755 0.15340003 0.057967722 -0.19017822 0.13130182
-0.13176621 -0.18498747 0.13260096 0.10270584 -0.11461234 -0.18478686 -0.106745206 -0.034215212
-0.012065738 -0.07478647 -0.021772683 0.0689013 -0.1807278 0.190274 -0.15978801 -0.00809519
0.03994727 0.025504515 -0.18914418 0.021947712 -0.09865865 -0.01943484 -0.03772293 0.16731748
0.023911402 0.010504216 -0.109237514 0.06282517 0.13298362 0.042146996 -0.17634514 0.039378703
-0.0549369 -0.15124467 0.029036522 -0.01961781 0.048821867 -0.16693956 -0.07486051 -0.017801702
-0.008106679 0.036563292 -0.04798056 -0.19015132 -0.18530244 -0.16346782 0.15171269 -0.20269921
-0.15349498 -0.14112905 -0.17773487 -0.2025762 0.05534458 0.04611987 -0.17051971 0.09583661
0.016394109 -0.14661172 -0.009574965 -0.1911788 -0.044061735 -0.17126429 -0.12980771 -0.19633977
0.106279075 0.15443087 0.088626325 0.0074170977 0.09329149 -0.05845855 -0.19035979 -0.12509276
0.09755926 0.06635762 0.16081189 -0.18956023 0.02839266 0.13055544 0.054938298 -0.13751292
0.0879549 0.08276583 -0.090312645 0.124605715 -0.16529593 0.20715074 -0.0954905 0.013334958

l1_in.bias f4 [40]
00000000: 7ed2 5c3d c941 223e 2fc8 9bbc 44bf b53d
00000010: c84c ebbd 2408 92bd 13b0 49be a7ba 4bbe
00000020: 5fb0 cfbd 4036 233d bcee c4bd ce25 863d
00000030: f831 e3bc a01c f33d 9a6f cebd 2ae3 8fbd
00000040: d84f 2abd 2b09 15bc 7754 33be 7efa bdbd
00000050: dbb3 4cbe 9202 ed3d 85b4 673e 8a33 ebbd
00000060: bd95 743e 445f 463e 5dc7 cebc 5781 ec3d
00000070: 1333 2f3e 8fca 463e 80c6 293b 7b3f 923d
00000080: d07c f9bd a406 0e3e 5913 04bd ee66 36b9
00000090: 0d8e e03d edf8 6e3e 2cc8 323e 79b3 4c3e
0.05391168 0.15845408 -0.019016353 0.08874372 -0.11489254 -0.07130459 -0.19696073 -0.19895421
-0.10141062 0.03984666 -0.096158475 0.065501794 -0.027733788 0.11870694 -0.1007988 -0.0702575
-0.04158005 -0.009096424 -0.1751269 -0.09276293 -0.19990484 0.11572756 0.22627456 -0.1148444
0.23885246 0.19372278 -0.025241548 0.11548107 0.17109327 0.19413207 0.0025905669 0.07141014
-0.12182009 0.1386972 -0.032245014 -0.00017395217 0.10964594 0.23337145 0.17459172 0.19990338

l1_out.inplace.weight f4 [40, 24]
00000000: 0cdf 13be 1d36 8fbd 6694 8ebd 143b 4d3e
00000010: 909d 42be 22a1 bb3c 4c93 313e 66ce 583d
00000020: 4e1f 50be cff6 50be accf 203e b218 243e
00000030: a59f 3b3e 22be c8bd b160 cd3d d9cc 42be
00000040: 192a dfbd 0837 9a3d a834 07be 48b9 34be
00000050: a46c 1d3e 72d4 e03d 984f be3d 10d5 db3e
00000060: 3c94 d3bd 8914 6b3e 123f d9bd e7b2 39be
00000070: e858 8d3d 2e72 c4bd df73 323e 31ee c03d
00000080: 7e74 153e 9fa1 b33b 41b0 073e 64b0 f3bd
00000090: c7dc 0dbe 8339 1dbe b90e 3a3e db52 b23b
000000a0: 67f3 293e f5f9 293d e461 123e 425a ddbd
000000b0: 90d5 313e 0f8f 88bd 2ce2 f13d 2452 3d3e
000000c0: f5ba 0c3d a15d bcbd c4ab 0a3e b4bb 293e
000000d0: 1f5b 153d 2158 103e 17ed c03d 681d 20be
000000e0: aa06 2fbe 7f6f c2bd 8792 74bd a23f 2fbe
000000f0: 2033 9fbd a847 30be 12fa d1bb 73b6 443c
00000100: bef2 8b3d c50d d53d 267b 7abd 5a1d 0bbe
00000110: e565 d53c 8ef3 2c3e b854 783e 7efc 413e
00000120: 56ad 203e 4e99 773c c536 103e 9617 ff3c
00000130: 77a0 19be 20ef 253e c985 f4bd deaa d2bd
00000140: a0e2 2ebe 03be c33c 7c2d 1d3e a474 023e
00000150: 8ffc d0bc 110a 323e 2ed2 3cbe afa5 023e
00000160: 6dfa a0bd fb91 b3bd 4ca1 babd e895 f93d
00000170: 45d1 ddbd 9f47 463d 17a6 3c3e c110 d23e
00000180: dbf1 70bd 0c14 f43d 4f8b c33d 7502 7d3d
00000190: 6caa f73c 0502 31bc 698d 00be c30b e03d
000001a0: 303a 44be 1d93 a7bd f902 09be 87ba 56be
000001b0: e53c 41be cd4a 55bd 2277 fe3d 4d85 fe39
000001c0: 22af 093e e62f ce3d 2cc5 bb3d 4619 3f3e
000001d0: 7e79 34be fb84 11be 8e13 d73d 9d02 2ebe
000001e0: 1c3f 0f3e 303e df3d 04f0 753d 5db5 2abe
000001f0: 8320 9e3d f719 f83d b77d c5bd 2eaa 18be
00000200: 60b9 373e a6ab 0abe f174 9ebd 4856 8d3d
00000210: 7b78 113d a6bf 49be 6f95 cdbd 37b3 9b3d
00000220: 06b9 05be dd96 ecbd 7015 1a3e 31da 92bd
00000230: 7b99 a0bc d57a 353d 12e9 393e 0547 0e3e
00000240: 1476 82bd 40b7 ccbb b821 36be e50b 1abe
00000250: 5406 8a3d 080e e0bc 5c0c bb3d 0051 2a3e
00000260: 6246 1b3e 52bf 0abe 1079 02bc a15d 49be
00000270: 062a 93bd e053 3cbc 3001 fa3d 4340 b2bd
00000280: 1126 1cbe ce4f 8cbd c87c 0fbe 0c5e ec3d
00000290: e614 1d3e 906f 6d3d 14be 42be fc73 063e
000002a0: b9ed 06be 5b6d 3dbe 8cc8 073e 7057 d23d
000002b0: e0b9 eabd c438 3dbe 3b9d dabd 4025 0cbd
000002c0: 60af 45bc a629 99bd a05c b2bc 201c 8d3d
000002d0: b510 39be 30d7 423e 789f 23be b0a1 04bc
000002e0: c09f 233d d8ee d03c 03af 41be b0cb b33c
000002f0: 8c0d cabd d035 9fbc 5c83 1abd 4655 2b3e
00000300: d8e1 c33c e019 2c3c ebb7 dfbd 7caa 803d
00000310: dc2c 083e 54a2 2c3d d293 34be 904b 213d
00000320: 8405 61bd e2df 1abe 00de ed3c 88b5 a0bc
00000330: 70f9 473d 34f2 2abe 7850 99bd e0d4 91bc
00000340: e0d1 04bc 64c3 153d 4487 44bd 07b7 42be
00000350: ecbf 3dbe 1c64 27be 925a 1b3e 6290 4fbe
00000360: ca2d 1dbe 2284 10be 2100 36be 2370 4fbe
00000370: 00b1 623d 30e8 3c3d b89c 2ebe fc45 c43d
00000380: f04c 863c 6221 16be 50e0 1cbc 60c4 43be
00000390: 147a 34bd e85f 2fbe 50ec 04be 4b0d 49be
000003a0: d8a8 d93d 2023 1e3e b881 b53d 200b f33b
000003b0: 9c0f bf3d 3c72 6fbd aded 42be 5118 00be
000003c0: 26cd c73d 81e6 873d dfab 243e 141c 42be
000003d0: b997 e83c 53b0 053e fb06 613d 30d0 0cbe
000003e0: b321 b43d 2281 a93d d6f5 b8bd 4831 ff3d
000003f0: 5643 29be 531f 543e 8690 c3bd de7a 5a3c
-0.14440554 -0.06992743 -0.069618985 0.20042068 -0.19005418 0.022903983 0.17341346 0.052931212
-0.20324442 -0.2040665 0.1570422 0.16025046 0.18322618 -0.0980189 0.10028208 -0.19023456
-0.10896701 0.07530028 -0.1320368 -0.17648804 0.15373474 0.10978021 0.09292525 0.4293599
-0.10331008 0.22957052 -0.10607733 -0.18134652 0.06901723 -0.095920905 0.17427014 0.094204314
0.1459522 0.005481913 0.1325083 -0.11898878 -0.13853751 -0.1535397 0.18169679 0.005442006
0.16596757 0.041498143 0.14295155 -0.10808231 0.17366624 -0.06667911 0.11810717 0.18488365
0.034357984 -0.09197546 0.13542086 0.1657551 0.036463853 0.14096119 0.09420221 -0.15636218
-0.17092386 -0.094939224 -0.059710052 -0.17114118 -0.07773423 -0.17214835 -0.0064079845 0.01200639
0.06833409 0.10403017 -0.0611526 -0.13585415 0.026049564 0.16889784 0.24251068 0.18943974
0.15691122 0.015112234 0.14083393 0.031139176 -0.15002619 0.162045 -0.1193958 -0.102864966
-0.17078638 0.023894316 0.15349382 0.12739807 -0.025511054 0.17386653 -0.18439552 0.12758516
-0.07860265 -0.08768078 -0.09112796 0.121867955 -0.108309306 0.048408147 0.18422733 0.41028407
-0.0588244 0.11917886 0.095480554 0.06176992 0.03023263 -0.010803704 -0.12553944 0.10939743
-0.19162822 -0.081823565 -0.1338004 -0.20969592 -0.18870886 -0.05207329 0.124250665 0.00048545972
0.13445714 0.1006773 0.09168467 0.18661985 -0.1762447 -0.14210884 0.10501777 -0.16993184
0.13988918 0.10900533 0.06004335 -0.16670747 0.07721045 0.121143274 -0.09643119 -0.14908668
0.17941809 -0.13542041 -0.077371486 0.069012225 0.03551529 -0.19702014 -0.10038268 0.07602542
-0.13058862 -0.115522124 0.1504724 -0.07170523 -0.019604435 0.044306595 0.18155316 0.1389428
-0.06370178 -0.006247431 -0.177863 -0.150436 0.06739488 -0.02735044 0.09133217 0.16632462
0.15163568 -0.13549545 -0.007963434 -0.19664623 -0.0718575 -0.011494607 0.12207258 -0.08703663
-0.15248896 -0.06851159 -0.14012444 0.115413755 0.15340003 0.057967722 -0.19017822 0.13130182
-0.13176621 -0.18498747 0.13260096 0.10270584 -0.11461234 -0.18478686 -0.106745206 -0.034215212
-0.012065738 -0.07478647 -0.021772683 0.0689013 -0.1807278 0.190274 -0.15978801 -0.00809519
0.03994727 0.025504515 -0.18914418 0.021947712 -0.09865865 -0.01943484 -0.03772293 0.16731748
0.023911402 0.010504216 -0.109237514 0.06282517 0.13298362 0.042146996 -0.17634514 0.039378703
-0.0549369 -0.15124467 0.029036522 -0.01961781 0.048821867 -0.16693956 -0.07486051 -0.017801702
-0.008106679 0.036563292 -0.04798056 -0.19015132 -0.18530244 -0.16346782 0.15171269 -0.20269921
-0.15349498 -0.14112905 -0.17773487 -0.2025762 0.05534458 0.04611987 -0.17051971 0.09583661
0.016394109 -0.14661172 -0.009574965 -0.1911788 -0.044061735 -0.17126429 -0.12980771 -0.19633977
0.106279075 0.15443087 0.088626325 0.0074170977 0.09329149 -0.05845855 -0.19035979 -0.12509276
0.09755926 0.06635762 0.16081189 -0.18956023 0.02839266 0.13055544 0.054938298 -0.13751292
0.0879549 0.08276583 -0.090312645 0.124605715 -0.16529593 0.20715074 -0.0954905 0.013334958

l1_out.inplace.bias f4 [40]
00000000: 7ed2 5c3d c941 223e 2fc8 9bbc 44bf b53d
00000010: c84c ebbd 2408 92bd 13b0 49be a7ba 4bbe
00000020: 5fb0 cfbd 4036 233d bcee c4bd ce25 863d
00000030: f831 e3bc a01c f33d 9a6f cebd 2ae3 8fbd
00000040: d84f 2abd 2b09 15bc 7754 33be 7efa bdbd
00000050: dbb3 4cbe 9202 ed3d 85b4 673e 8a33 ebbd
00000060: bd95 743e 445f 463e 5dc7 cebc 5781 ec3d
00000070: 1333 2f3e 8fca 463e 80c6 293b 7b3f 923d
00000080: d07c f9bd a406 0e3e 5913 04bd ee66 36b9
00000090: 0d8e e03d edf8 6e3e 2cc8 323e 79b3 4c3e
0.05391168 0.15845408 -0.019016353 0.08874372 -0.11489254 -0.07130459 -0.19696073 -0.19895421
-0.10141062 0.03984666 -0.096158475 0.065501794 -0.027733788 0.11870694 -0.1007988 -0.0702575
-0.04158005 -0.009096424 -0.1751269 -0.09276293 -0.19990484 0.11572756 0.22627456 -0.1148444
0.23885246 0.19372278 -0.025241548 0.11548107 0.17109327 0.19413207 0.0025905669 0.07141014
-0.12182009 0.1386972 -0.032245014 -0.00017395217 0.10964594 0.23337145 0.17459172 0.19990338

l2.weight f4 [24, 40]
00000000: f04e 6d3e 4fa2 003e b6b9 91bd b43f 283e
00000010: 0249 8d3d 0826 9f3c 409f 32bb 80f7 dc3b
00000020: b00b ac3d 9859 f73c 88f6 eabc f274 f03d
00000030: e447 ee3c 287e 0ebe 695f adbd e643 fbbd
00000040: c0e5 98bb 553a 633e ce2d 033e a4e7 cdbd
00000050: 97c2 49bd 9d2c 08bc f67c 2b3e bc41 203e
00000060: fe3c 353c a7e7 09bd e33e 27bd 00d2 b1bc
00000070: 6a49 853e f11a c8bd 80ea 9cbd f5d6 ea3d
00000080: 5842 22be ce8e 52bd 0d35 9e3d f8c4 173d
00000090: b278 8b3d 6ecb e93d a8f5 b93d a983 073e
000000a0: 6edd 1c3e cc08 60bd 4a1c 933d f542 7e3d
000000b0: 02fb 8fbd bc26 da3d a006 373d 4e61 f2bd
000000c0: a02f 8c3b 3f9f 09be 688e a6bd 6cea b73d
000000d0: 5eed 603d f86a a73d e130 16be b6b4 fa3d
000000e0: 229a bf3d 3721 7f3e b0db 6dbd 34a0 da3d
000000f0: 20aa e93d b621 983d 12e4 5bbc 58a1 8dbd
00000100: b144 103e 0396 0f3d 1990 a13d 726f 193e
00000110: 9d7f 0a3e 66a4 003e 658d 9ebd a2f3 1fbd
00000120: 6d1c 033d 7e35 133d bc97 a5bd 22b5 803d
00000130: 2812 ddbd e61c 303e 60aa 523d a9fc 543e
00000140: c787 1f3e aeb9 babd ff63 293d d674 3b3c
00000150: 0ea1 023e 6ce2 1a3d 8ab0 b2bd 48fc 933c
00000160: a097 f7bc dc15 91bd 908b c0bd 0b39 9ebd
00000170: b9d8 153d f641 db3d d86a e9bc 8671 813d
00000180: a680 68bd f565 e53d a137 f83d c1a2 d3bd
00000190: ffb8 c73c 196c a3bd dca4 523e ebfc 523d
000001a0: e0ba 313e ac21 423e 424b 1fbe 4f1d d63d
000001b0: ed42 903e c6e8 e13d 475d acbd 2e63 d03d
000001c0: c531 79bd 9f52 313e 7f7e 8ebd 9047 ae3d
000001d0: d9bd 853d 88c1 ad3d d8aa 653d f7bf 713d
000001e0: 952a 16bd f5e6 453e df9f 493d 13e3 98bc
000001f0: 9228 27bc 2ccb 2f3e 749c 683d 407a dbbb
00000200: 9067 19bc 008e ab3d 9470 c53d 5720 383e
00000210: 1fff e63d 46c7 ef3d ee2f e4bd 3006 78bc
00000220: f57a 063e 2a12 df3d 5be8 c33b 77b4 66bd
00000230: d4ca 07be 447c d6bc 12ff 2a3e 8402 0dbe
00000240: 2f8a 33bd 3d12 cb3a 0157 2e3d 8f90 223e
00000250: 1c92 773e 8d6a fcbc 5c6a 5f3d f163 c7bd
00000260: 1e00 21be 1e25 2d3e e6ff 83bd 2024 063e
00000270: e849 66bd 6106 7b3d 5004 783d 09ec af3a
00000280: b592 1a3e 10f9 cdbd 8ff8 7a3d 2078 9b3d
00000290: 97d5 efbd 7f8d 76bd 103d 203c e09f 793d
000002a0: 9f5f 16be 88c7 8cbc 5ef3 bbbc 2e40 efbc
000002b0: 9ffb 473e e092 6dbc f52d 203e 05af afbd
000002c0: c868 bebd afd3 49bd 4e77 b93d 3dac 173d
000002d0: 19e7 04be 891e 8f3b b260 523e b114 ea3d
000002e0: 8f6c 3f3e 342f cabd 999a e53d 61d6 5b3b
000002f0: f50a 693e 5b10 423d a8d7 94bd 14c0 3cbd
00000300: c1a7 5b3c 9d30 933d 3870 64bc 5e2f 2bbd
00000310: 7e2a 823b 1904 823e 7cfb c0bd 4b4e c93d
00000320: febb 3f3e d2b3 8f3c 27e5 0f3e f48f 573e
00000330: 0b74 6b3d ba65 563b 6cd4 d9bd 6620 d33d
00000340: 12c3 babd 4eed 90bd c0a5 7c3d 8828 953c
00000350: 0756 4e3c 2277 adbd 131c ee3d 28b4 1c3d
00000360: 6422 6b3d a063 113e ba77 323b e71b e73d
00000370: 4b66 e5bc b2ae 103e dbc6 143d d04c a6bd
00000380: 788b 5a3e f807 6bbb ac4f 053e b212 edbc
00000390: dcc0 603e cc90 39bd aee9 dcbd b237 1d3d
000003a0: 2a6a 25be 5b89 a1bc dc89 e7bd 87b9 db3d
000003b0: 7e5b 66bd d575 17bd e8eb 203d d15d 323e
000003c0: b0cf 233e bbf3 243e ae40 bbbc 12e3 3a3e
000003d0: 012a 3a3c 921c 7d3d f71e 043e 42ad bdbd
000003e0: 915a 80bd d45d 123d 38af 1a3e 8742 35bd
000003f0: c065 8dbd de80 10be 5ab5 9dbd 521b ce3d
0.23174644 0.12561916 -0.071155 0.16430551 0.06898691 0.019427314 -0.0027255565 0.0067433715
0.08400667 0.030194089 -0.028682008 0.117410555 0.029087014 -0.13915312 -0.08465464 -0.1226881
-0.00466606 0.2219022 0.12810442 -0.100539476 -0.04925784 -0.008311418 0.16746888 0.15650076
0.011061905 -0.033668187 -0.040831458 -0.021706581 0.26032573 -0.09770764 -0.07661915 0.11466781
-0.1584562 -0.05140572 0.077249624 0.03705308 0.0681013 0.11415754 0.09080058 0.13233818
0.15318844 -0.05469589 0.0718313 0.062075574 -0.07030298 0.10651919 0.044684052 -0.11834966
0.0042781383 -0.13439654 -0.081326306 0.08980259 0.05491387 0.081746995 -0.14667083 0.12241499
0.093555704 0.24915014 -0.05807084 0.106750876 0.11409402 0.07428305 -0.013421075 -0.069155395
0.14088704 0.03505517 0.078888126 0.1498392 0.13525243 0.12562713 -0.077418126 -0.039050706
0.03200953 0.035939686 -0.08085582 0.06284548 -0.10794479 0.17198524 0.051432014 0.20799507
0.15579139 -0.09117447 0.04135513 0.01144143 0.1275675 0.03781359 -0.087250784 0.018064633
-0.030223668 -0.070842475 -0.094016194 -0.07725724 0.036583636 0.107059404 -0.02849333 0.06320481
-0.056763314 0.112010874 0.12119985 -0.10333777 0.024380205 -0.07979602 0.20570701 0.051510733
0.17356443 0.18958157 -0.15556052 0.10454809 0.2817606 0.11030726 -0.08416229 0.10175167
-0.06083848 0.17316674 -0.06957721 0.08509743 0.06530351 0.08484179 0.056071132 0.059020963
-0.036661703 0.19326384 0.04922473 -0.018662965 -0.010202544 0.17167348 0.05678983 -0.006697923
-0.00936307 0.08376694 0.09640613 0.17981087 0.11279129 0.1170793 -0.11141954 -0.015138194
0.13132842 0.108921364 0.0059786267 -0.05632445 -0.13260967 -0.026182301 0.16698864 -0.13770491
-0.043832954 0.0015493106 0.042563442 0.15875457 0.2417683 -0.030812526 0.05454479 -0.09735859
-0.15722701 0.1690869 -0.06445293 0.13099718 -0.056222826 0.06128538 0.060550988 0.0013421784
0.15095027 -0.100572705 0.0612722 0.075912714 -0.11710661 -0.060193535 0.009780183 0.060943484
-0.14684914 -0.017184988 -0.022943195 -0.029205408 0.1952958 -0.01450035 0.15642531 -0.08578304
-0.09297329 -0.049274143 0.09055959 0.037029494 -0.12978782 0.0043676537 0.20544699 0.11429728
0.18693756 -0.098722845 0.11211128 0.0033544528 0.22758086 0.04737888 -0.07267696 -0.046081617
0.013406695 0.071870066 -0.013942771 -0.04179322 0.0039723506 0.2539375 -0.09422967 0.09829386
0.18724057 0.0175418 0.14052258 0.21051008 0.057483714 0.0032714442 -0.106362194 0.10308914
-0.09119238 -0.07076512 0.06168151 0.018207803 0.012593753 -0.084699884 0.116264485 0.038257748
0.057405844 0.1419816 0.0027232007 0.11284619 -0.028002879 0.14129141 0.036322456 -0.081201196
0.21342266 -0.0035862904 0.13018674 -0.028939579 0.2194857 -0.045304105 -0.10786758 0.038383193
-0.1615378 -0.019718817 -0.113055915 0.10728746 -0.056239597 -0.036977608 0.039287478 0.174186
0.15997195 0.16108601 -0.02285799 0.18250683 0.011362554 0.061794825 0.12902437 -0.09261562
-0.06267274 0.035734013 0.15105903 -0.0442529 -0.06904173 -0.14111659 -0.07700606 0.10063805

l2.bias f4 [24]
00000000: 0465 b2bd b801 c83c 8e6c 85bd 7ac2 bc3d
00000010: 0058 f83d f69a 533e 2e98 df3d 1a17 143e
00000020: 2e35 363e 1509 b43e 203c ac3e e34f c23e
00000030: 72c9 ad3e be80 973e 4024 9f3e 7c71 c93e
00000040: 7860 923e ffb4 9a3e ebf0 e93e a90a cd3e
00000050: 25ae e03e d495 903e 205f b33e ae23 863e
-0.087106735 0.024414882 -0.06514846 0.09216781 0.1212616 0.20664582 0.10917698 0.14461938
0.17793724 0.3516318 0.33639622 0.37951574 0.33942753 0.2959041 0.31082344 0.39344394
0.28589225 0.30216214 0.45691618 0.40047196 0.43882862 0.2823931 0.35033512 0.26199096
