prediction_wind_solar_price_load/wind_mlp.pth (torch_old, 8952 bytes, 6 tensors)

l1_in.weight f4 [40, 24]
0	0xbe14bcd9	-0.14525165
1	0xbd91beca	-0.07116468
2	0xbd91e6f7	-0.07124131
3	0x3e4b2b9e	0.19840857
4	0xbe4449aa	-0.19168726
5	0x3cb1463c	0.021639936
6	0x3e30a9d1	0.1725228
7	0x3d570d29	0.052502785
8	0xbe50124e	-0.20319483
9	0xbe507366	-0.20356521
10	0x3e2158cc	0.1575653
11	0x3e24a832	0.16079786
12	0x3e3c3653	0.18380098
13	0xbdc7a706	-0.09748654
14	0x3dce670f	0.100782506
15	0xbe425624	-0.18978173
16	0xbde1fc7a	-0.11034484
17	0x3d93a1af	0.07208573
18	0xbe0c6174	-0.1370905
19	0xbe39febe	-0.18163583
20	0x3e180cb6	0.14848599
21	0x3dd5ddc7	0.10442691
22	0x3dc12dcd	0.09432564
23	0x3ee00205	0.4375154
24	0xbdd07cff	-0.10180091
25	0x3e6bfb3e	0.2304506
26	0xbdd8ba10	-0.105823636
27	0xbe3a1558	-0.18172204
28	0x3d8c2367	0.0684269
29	0xbdc61a1f	-0.09672951
30	0x3e316737	0.1732453
31	0x3dbf925b	0.09354087
32	0x3e1527ed	0.14566012
33	0x3bb5b69f	0.005545452
34	0x3e08102a	0.13287416
35	0xbdf25160	-0.11831927
36	0xbe0cdccd	-0.13756104
37	0xbe1c88a8	-0.15286505
38	0x3e3a7311	0.18207957
39	0x3bb4f12a	0.005521913
40	0x3e28f03d	0.16497894
41	0x3d218753	0.039435696
42	0x3e0f2b60	0.1398139
43	0xbde38c02	-0.11110689
44	0x3e2ed8f4	0.17074949
45	0xbd8e50a8	-0.06948978
46	0x3df2dfd1	0.11859096
47	0x3e413098	0.18866193
48	0x3d1033ab	0.035205524
49	0xbdbb81bf	-0.091556065
50	0x3e0aa98c	0.1354124
51	0x3e294a31	0.16532208
52	0x3d130c34	0.03590031
53	0x3e0fa09e	0.14026114
54	0x3dbf389e	0.09336971
55	0xbe212e92	-0.15740421
56	0xbe304c37	-0.17216574
57	0xbdc56a33	-0.096393965
58	0xbd7ab978	-0.061212033
59	0xbe30d55f	-0.17268895
60	0xbda27630	-0.07932699
61	0xbe320eea	-0.17388502
62	0xbc07b851	-0.008283691
63	0x3c239d9a	0.009986306
64	0x3d8714ba	0.0659575
65	0x3dcf7024	0.10128811
66	0xbd83986f	-0.06425559
67	0xbe0e190b	-0.1387674
68	0x3cbf101a	0.023323108
69	0x3e2a59cd	0.16635819
70	0x3e784b95	0.24247582
71	0x3e44842f	0.19191049
72	0x3e213835	0.15744098
73	0x3c75c15a	0.014999712
74	0x3e0f7400	0.14009094
75	0x3cf3c372	0.029756282
76	0xbe1ad2f9	-0.15119542
77	0x3e24f134	0.16107637
78	0xbdf615c7	-0.120158724
79	0xbdd34f5f	-0.10317873
80	0xbe2eba7c	-0.17063326
81	0x3cc890a7	0.024483038
82	0x3e1dfb6e	0.15427944
83	0x3e037748	0.12838471
84	0xbcc73445	-0.024316916
85	0x3e336df7	0.17522417
86	0xbe3b3eaf	-0.1828563
87	0x3e0462be	0.12928292
88	0xbda25f3a	-0.07928319
89	0xbdb9da4a	-0.090748385
90	0xbdc5d045	-0.09658865
91	0x3deda1a1	0.11603094
92	0xbdea9067	-0.11453324
93	0x3d2b3002	0.04179383
94	0x3e3e2553	0.18568926
95	0x3ed6f319	0.41982344
96	0xbd70decd	-0.05880623
97	0x3df4130f	0.11917698
98	0x3dc38021	0.09545923
99	0x3d7cd70f	0.061728533
100	0x3cf77926	0.030209135
101	0xbc311bb9	-0.010809832
102	0xbe008a62	-0.12552789
103	0x3de0056b	0.109385334
104	0xbe4443ab	-0.19166438
105	0xbda7b2a7	-0.08188372
106	0xbe090f04	-0.13384634
107	0xbe56c2f4	-0.20972806
108	0xbe4141b2	-0.18872717
109	0xbd556b15	-0.052104075
110	0x3dfe6092	0.12420763
111	0x39e18108	0.0004301148
112	0x3e09a5a3	0.13442092
113	0x3dce2771	0.100661166
114	0x3dbbc70d	0.09168825
115	0x3e3f1dc5	0.186637
116	0xbe347176	-0.17621407
117	0xbe117954	-0.1420644
118	0x3dd72b35	0.10506288
119	0xbe2df6b3	-0.1698864
120	0x3e0fcadd	0.1404223
121	0x3ddff892	0.10936083
122	0x3d76ac63	0.060222995
123	0xbe2ab452	-0.16670349
124	0x3d9dcfe2	0.07705666
125	0x3df772bd	0.120824315
126	0xbdc67951	-0.09691108
127	0xbe190f47	-0.14947234
128	0x3e376e6b	0.17913215
129	0xbe0ade46	-0.13561353
130	0xbd9ee79c	-0.0775902
131	0x3d8cd5af	0.068766944
132	0x3d105c67	0.03524437
133	0xbe4a65ed	-0.19765444
134	0xbdcf9dda	-0.1013753
135	0x3d98ed85	0.07467178
136	0xbe075223	-0.13214926
137	0xbdf03969	-0.117297
138	0x3e180d1c	0.14848751
139	0xbd964326	-0.07337026
140	0xbcab9fa9	-0.020950155
141	0x3d314426	0.043277882
142	0x3e3afbb9	0.18260087
143	0x3e1179bd	0.14206596
144	0xbd827614	-0.06370178
145	0xbbccb740	-0.006247431
146	0xbe3621b8	-0.177863
147	0xbe1a0be5	-0.150436
148	0x3d8a0654	0.06739488
149	0xbce00e08	-0.02735044
150	0x3dbb0c5c	0.09133217
151	0x3e2a5100	0.16632462
152	0x3e1b4662	0.15163568
153	0xbe0abf52	-0.13549545
154	0xbc027910	-0.007963434
155	0xbe495da1	-0.19664623
156	0xbd932a06	-0.0718575
157	0xbc3c53e0	-0.011494607
158	0x3dfa0130	0.12207258
159	0xbdb24043	-0.08703663
160	0xbe1c2611	-0.15248896
161	0xbd8c4fce	-0.06851159
162	0xbe0f7cc8	-0.14012444
163	0x3dec5e0c	0.115413755
164	0x3e1d14e6	0.15340003
165	0x3d6d6f90	0.057967722
166	0xbe42be14	-0.19017822
167	0x3e0673fc	0.13130182
168	0xbe06edb9	-0.13176621
169	0xbe3d6d5b	-0.18498747
170	0x3e07c88c	0.13260096
171	0x3dd25770	0.10270584
172	0xbdeab9e0	-0.11461234
173	0xbe3d38c4	-0.18478686
174	0xbdda9d3b	-0.106745206
175	0xbd0c2540	-0.034215212
176	0xbc45af60	-0.012065738
177	0xbd9929a6	-0.07478647
178	0xbcb25ca0	-0.021772683
179	0x3d8d1c20	0.0689013
180	0xbe3910b5	-0.1807278
181	0x3e42d730	0.190274
182	0xbe239f78	-0.15978801
183	0xbc04a1b0	-0.00809519
184	0x3d239fc0	0.03994727
185	0x3cd0eed8	0.025504515
186	0xbe41af03	-0.18914418
187	0x3cb3cbb0	0.021947712
188	0xbdca0d8c	-0.09865865
189	0xbc9f35d0	-0.01943484
190	0xbd1a835c	-0.03772293
191	0x3e2b5546	0.16731748
192	0x3cc3e1d8	0.023911402
193	0x3c2c19e0	0.010504216
194	0xbddfb7eb	-0.109237514
195	0x3d80aa7c	0.06282517
196	0x3e082cdc	0.13298362
197	0x3d2ca254	0.042146996
198	0xbe3493d2	-0.17634514
199	0x3d214b90	0.039378703
200	0xbd610584	-0.0549369
201	0xbe1adfe2	-0.15124467
202	0x3cedde00	0.029036522
203	0xbca0b588	-0.01961781
204	0x3d47f970	0.048821867
205	0xbe2af234	-0.16693956
206	0xbd995078	-0.07486051
207	0xbc91d4e0	-0.017801702
208	0xbc04d1e0	-0.008106679
209	0x3d15c364	0.036563292
210	0xbd448744	-0.04798056
211	0xbe42b707	-0.19015132
212	0xbe3dbfec	-0.18530244
213	0xbe27641c	-0.16346782
214	0x3e1b5a92	0.15171269
215	0xbe4f9062	-0.20269921
216	0xbe1d2dca	-0.15349498
217	0xbe108422	-0.14112905
218	0xbe360021	-0.17773487
219	0xbe4f7023	-0.2025762
220	0x3d62b100	0.05534458
221	0x3d3ce830	0.04611987
222	0xbe2e9cb8	-0.17051971
223	0x3dc445fc	0.09583661
224	0x3c864cf0	0.016394109
225	0xbe162162	-0.14661172
226	0xbc1ce050	-0.009574965
227	0xbe43c460	-0.1911788
228	0xbd347a14	-0.044061735
229	0xbe2f5fe8	-0.17126429
230	0xbe04ec50	-0.12980771
231	0xbe490d4b	-0.19633977
232	0x3dd9a8d8	0.106279075
233	0x3e1e2320	0.15443087
234	0x3db581b8	0.088626325
235	0x3bf30b20	0.0074170977
236	0x3dbf0f9c	0.09329149
237	0xbd6f723c	-0.05845855
238	0xbe42edad	-0.19035979
239	0xbe001851	-0.12509276
240	0x3dc8195f	0.09770464
241	0x3d879205	0.06619648
242	0x3e2431d7	0.16034637
243	0xbe42e6a3	-0.19033293
244	0x3ce19c78	0.02754043
245	0x3e04bb09	0.12961973
246	0x3d5cdca4	0.053921357
247	0xbe0d8bcd	-0.13822861
248	0x3db34b3a	0.08754583
249	0x3da94692	0.08265413
250	0xbdb87edc	-0.090085715
251	0x3e002ced	0.12517138
252	0xbe2855b2	-0.1643894
253	0x3e54d875	0.20785697
254	0xbdc2840f	-0.094978444
255	0x3c5f93cb	0.013646076

l1_in.bias f4 [40]
0	0x3d7b849e	0.06140577
1	0x3e2757ee	0.16342136
2	0xbc825d70	-0.015913695
3	0x3dcbd004	0.09951785
4	0xbdeb51b7	-0.11490195
5	0xbd8dbb41	-0.069204815
6	0xbe49b013	-0.19696073
7	0xbe4bbaa7	-0.19895421
8	0xbdcfb05f	-0.10141062
9	0x3d233640	0.03984666
10	0xbdbdfba5	-0.09276513
11	0x3d92343a	0.07138868
12	0xbcbeb0c9	-0.023277657
13	0x3df31ca0	0.11870694
14	0xbdc3730b	-0.09543427
15	0xbd8fe32a	-0.0702575
16	0xbd2a4fd8	-0.04158005
17	0xba4c6f37	-0.0007798555
18	0xbe333636	-0.17501149
19	0xbdbdf39a	-0.09274979
20	0xbe4ca38f	-0.19984268
21	0x3df26d50	0.11837256
22	0x3e703323	0.23457007
23	0xbdeb4ede	-0.11489652
24	0x3e7c7165	0.24652632
25	0x3e4a803a	0.19775477
26	0xbccefcb2	-0.025266979
27	0x3e00b911	0.12570597
28	0x3e369f98	0.17834318
29	0x3e46ca94	0.19413215
30	0x3b29c680	0.0025905669
31	0x3d98022c	0.07422289
32	0xbe00132a	-0.1250731
33	0x3e132cd7	0.14372574
34	0xbce66d69	-0.028128343
35	0xb9341d4d	-0.00017177053
36	0x3de08629	0.10963089
37	0x3e761405	0.24031074
38	0x3e32c82c	0.17459172
39	0x3e596b48	0.21232331

l1_out.inplace.weight f4 [40, 24]
0	0xbe14bcd9	-0.14525165
1	0xbd91beca	-0.07116468
2	0xbd91e6f7	-0.07124131
3	0x3e4b2b9e	0.19840857
4	0xbe4449aa	-0.19168726
5	0x3cb1463c	0.021639936
6	0x3e30a9d1	0.1725228
7	0x3d570d29	0.052502785
8	0xbe50124e	-0.20319483
9	0xbe507366	-0.20356521
10	0x3e2158cc	0.1575653
11	0x3e24a832	0.16079786
12	0x3e3c3653	0.18380098
13	0xbdc7a706	-0.09748654
14	0x3dce670f	0.100782506
15	0xbe425624	-0.18978173
16	0xbde1fc7a	-0.11034484
17	0x3d93a1af	0.07208573
18	0xbe0c6174	-0.1370905
19	0xbe39febe	-0.18163583
20	0x3e180cb6	0.14848599
21	0x3dd5ddc7	0.10442691
22	0x3dc12dcd	0.09432564
23	0x3ee00205	0.4375154
24	0xbdd07cff	-0.10180091
25	0x3e6bfb3e	0.2304506
26	0xbdd8ba10	-0.105823636
27	0xbe3a1558	-0.18172204
28	0x3d8c2367	0.0684269
29	0xbdc61a1f	-0.09672951
30	0x3e316737	0.1732453
31	0x3dbf925b	0.09354087
32	0x3e1527ed	0.14566012
33	0x3bb5b69f	0.005545452
34	0x3e08102a	0.13287416
35	0xbdf25160	-0.11831927
36	0xbe0cdccd	-0.13756104
37	0xbe1c88a8	-0.15286505
38	0x3e3a7311	0.18207957
39	0x3bb4f12a	0.005521913
40	0x3e28f03d	0.16497894
41	0x3d218753	0.039435696
42	0x3e0f2b60	0.1398139
43	0xbde38c02	-0.11110689
44	0x3e2ed8f4	0.17074949
45	0xbd8e50a8	-0.06948978
46	0x3df2dfd1	0.11859096
47	0x3e413098	0.18866193
48	0x3d1033ab	0.035205524
49	0xbdbb81bf	-0.091556065
50	0x3e0aa98c	0.1354124
51	0x3e294a31	0.16532208
52	0x3d130c34	0.03590031
53	0x3e0fa09e	0.14026114
54	0x3dbf389e	0.09336971
55	0xbe212e92	-0.15740421
56	0xbe304c37	-0.17216574
57	0xbdc56a33	-0.096393965
58	0xbd7ab978	-0.061212033
59	0xbe30d55f	-0.17268895
60	0xbda27630	-0.07932699
61	0xbe320eea	-0.17388502
62	0xbc07b851	-0.008283691
63	0x3c239d9a	0.009986306
64	0x3d8714ba	0.0659575
65	0x3dcf7024	0.10128811
66	0xbd83986f	-0.06425559
67	0xbe0e190b	-0.1387674
68	0x3cbf101a	0.023323108
69	0x3e2a59cd	0.16635819
70	0x3e784b95	0.24247582
71	0x3e44842f	0.19191049
72	0x3e213835	0.15744098
73	0x3c75c15a	0.014999712
74	0x3e0f7400	0.14009094
75	0x3cf3c372	0.029756282
76	0xbe1ad2f9	-0.15119542
77	0x3e24f134	0.16107637
78	0xbdf615c7	-0.120158724
79	0xbdd34f5f	-0.10317873
80	0xbe2eba7c	-0.17063326
81	0x3cc890a7	0.024483038
82	0x3e1dfb6e	0.15427944
83	0x3e037748	0.12838471
84	0xbcc73445	-0.024316916
85	0x3e336df7	0.17522417
86	0xbe3b3eaf	-0.1828563
87	0x3e0462be	0.12928292
88	0xbda25f3a	-0.07928319
89	0xbdb9da4a	-0.090748385
90	0xbdc5d045	-0.09658865
91	0x3deda1a1	0.11603094
92	0xbdea9067	-0.11453324
93	0x3d2b3002	0.04179383
94	0x3e3e2553	0.18568926
95	0x3ed6f319	0.41982344
96	0xbd70decd	-0.05880623
97	0x3df4130f	0.11917698
98	0x3dc38021	0.09545923
99	0x3d7cd70f	0.061728533
100	0x3cf77926	0.030209135
101	0xbc311bb9	-0.010809832
102	0xbe008a62	-0.12552789
103	0x3de0056b	0.109385334
104	0xbe4443ab	-0.19166438
105	0xbda7b2a7	-0.08188372
106	0xbe090f04	-0.13384634
107	0xbe56c2f4	-0.20972806
108	0xbe4141b2	-0.18872717
109	0xbd556b15	-0.052104075
110	0x3dfe6092	0.12420763
111	0x39e18108	0.0004301148
112	0x3e09a5a3	0.13442092
113	0x3dce2771	0.100661166
114	0x3dbbc70d	0.09168825
115	0x3e3f1dc5	0.186637
116	0xbe347176	-0.17621407
117	0xbe117954	-0.1420644
118	0x3dd72b35	0.10506288
119	0xbe2df6b3	-0.1698864
120	0x3e0fcadd	0.1404223
121	0x3ddff892	0.10936083
122	0x3d76ac63	0.060222995
123	0xbe2ab452	-0.16670349
124	0x3d9dcfe2	0.07705666
125	0x3df772bd	0.120824315
126	0xbdc67951	-0.09691108
127	0xbe190f47	-0.14947234
128	0x3e376e6b	0.17913215
129	0xbe0ade46	-0.13561353
130	0xbd9ee79c	-0.0775902
131	0x3d8cd5af	0.068766944
132	0x3d105c67	0.03524437
133	0xbe4a65ed	-0.19765444
134	0xbdcf9dda	-0.1013753
135	0x3d98ed85	0.07467178
136	0xbe075223	-0.13214926
137	0xbdf03969	-0.117297
138	0x3e180d1c	0.14848751
139	0xbd964326	-0.07337026
140	0xbcab9fa9	-0.020950155
141	0x3d314426	0.043277882
142	0x3e3afbb9	0.18260087
143	0x3e1179bd	0.14206596
144	0xbd827614	-0.06370178
145	0xbbccb740	-0.006247431
146	0xbe3621b8	-0.177863
147	0xbe1a0be5	-0.150436
148	0x3d8a0654	0.06739488
149	0xbce00e08	-0.02735044
150	0x3dbb0c5c	0.09133217
151	0x3e2a5100	0.16632462
152	0x3e1b4662	0.15163568
153	0xbe0abf52	-0.13549545
154	0xbc027910	-0.007963434
155	0xbe495da1	-0.19664623
156	0xbd932a06	-0.0718575
157	0xbc3c53e0	-0.011494607
158	0x3dfa0130	0.12207258
159	0xbdb24043	-0.08703663
160	0xbe1c2611	-0.15248896
161	0xbd8c4fce	-0.06851159
162	0xbe0f7cc8	-0.14012444
163	0x3dec5e0c	0.115413755
164	0x3e1d14e6	0.15340003
165	0x3d6d6f90	0.057967722
166	0xbe42be14	-0.19017822
167	0x3e0673fc	0.13130182
168	0xbe06edb9	-0.13176621
169	0xbe3d6d5b	-0.18498747
170	0x3e07c88c	0.13260096
171	0x3dd25770	0.10270584
172	0xbdeab9e0	-0.11461234
173	0xbe3d38c4	-0.18478686
174	0xbdda9d3b	-0.106745206
175	0xbd0c2540	-0.034215212
176	0xbc45af60	-0.012065738
177	0xbd9929a6	-0.07478647
178	0xbcb25ca0	-0.021772683
179	0x3d8d1c20	0.0689013
180	0xbe3910b5	-0.1807278
181	0x3e42d730	0.190274
182	0xbe239f78	-0.15978801
183	0xbc04a1b0	-0.00809519
184	0x3d239fc0	0.03994727
185	0x3cd0eed8	0.025504515
186	0xbe41af03	-0.18914418
187	0x3cb3cbb0	0.021947712
188	0xbdca0d8c	-0.09865865
189	0xbc9f35d0	-0.01943484
190	0xbd1a835c	-0.03772293
191	0x3e2b5546	0.16731748
192	0x3cc3e1d8	0.023911402
193	0x3c2c19e0	0.010504216
194	0xbddfb7eb	-0.109237514
195	0x3d80aa7c	0.06282517
196	0x3e082cdc	0.13298362
197	0x3d2ca254	0.042146996
198	0xbe3493d2	-0.17634514
199	0x3d214b90	0.039378703
200	0xbd610584	-0.0549369
201	0xbe1adfe2	-0.15124467
202	0x3cedde00	0.029036522
203	0xbca0b588	-0.01961781
204	0x3d47f970	0.048821867
205	0xbe2af234	-0.16693956
206	0xbd995078	-0.07486051
207	0xbc91d4e0	-0.017801702
208	0xbc04d1e0	-0.008106679
209	0x3d15c364	0.036563292
210	0xbd448744	-0.04798056
211	0xbe42b707	-0.19015132
212	0xbe3dbfec	-0.18530244
213	0xbe27641c	-0.16346782
214	0x3e1b5a92	0.15171269
215	0xbe4f9062	-0.20269921
216	0xbe1d2dca	-0.15349498
217	0xbe108422	-0.14112905
218	0xbe360021	-0.17773487
219	0xbe4f7023	-0.2025762
220	0x3d62b100	0.05534458
221	0x3d3ce830	0.04611987
222	0xbe2e9cb8	-0.17051971
223	0x3dc445fc	0.09583661
224	0x3c864cf0	0.016394109
225	0xbe162162	-0.14661172
226	0xbc1ce050	-0.009574965
227	0xbe43c460	-0.1911788
228	0xbd347a14	-0.044061735
229	0xbe2f5fe8	-0.17126429
230	0xbe04ec50	-0.12980771
231	0xbe490d4b	-0.19633977
232	0x3dd9a8d8	0.106279075
233	0x3e1e2320	0.15443087
234	0x3db581b8	0.088626325
235	0x3bf30b20	0.0074170977
236	0x3dbf0f9c	0.09329149
237	0xbd6f723c	-0.05845855
238	0xbe42edad	-0.19035979
239	0xbe001851	-0.12509276
240	0x3dc8195f	0.09770464
241	0x3d879205	0.06619648
242	0x3e2431d7	0.16034637
243	0xbe42e6a3	-0.19033293
244	0x3ce19c78	0.02754043
245	0x3e04bb09	0.12961973
246	0x3d5cdca4	0.053921357
247	0xbe0d8bcd	-0.13822861
248	0x3db34b3a	0.08754583
249	0x3da94692	0.08265413
250	0xbdb87edc	-0.090085715
251	0x3e002ced	0.12517138
252	0xbe2855b2	-0.1643894
253	0x3e54d875	0.20785697
254	0xbdc2840f	-0.094978444
255	0x3c5f93cb	0.013646076

l1_out.inplace.bias f4 [40]
0	0x3d7b849e	0.06140577
1	0x3e2757ee	0.16342136
2	0xbc825d70	-0.015913695
3	0x3dcbd004	0.09951785
4	0xbdeb51b7	-0.11490195
5	0xbd8dbb41	-0.069204815
6	0xbe49b013	-0.19696073
7	0xbe4bbaa7	-0.19895421
8	0xbdcfb05f	-0.10141062
9	0x3d233640	0.03984666
10	0xbdbdfba5	-0.09276513
11	0x3d92343a	0.07138868
12	0xbcbeb0c9	-0.023277657
13	0x3df31ca0	0.11870694
14	0xbdc3730b	-0.09543427
15	0xbd8fe32a	-0.0702575
16	0xbd2a4fd8	-0.04158005
17	0xba4c6f37	-0.0007798555
18	0xbe333636	-0.17501149
19	0xbdbdf39a	-0.09274979
20	0xbe4ca38f	-0.19984268
21	0x3df26d50	0.11837256
22	0x3e703323	0.23457007
23	0xbdeb4ede	-0.11489652
24	0x3e7c7165	0.24652632
25	0x3e4a803a	0.19775477
26	0xbccefcb2	-0.025266979
27	0x3e00b911	0.12570597
28	0x3e369f98	0.17834318
29	0x3e46ca94	0.19413215
30	0x3b29c680	0.0025905669
31	0x3d98022c	0.07422289
32	0xbe00132a	-0.1250731
33	0x3e132cd7	0.14372574
34	0xbce66d69	-0.028128343
35	0xb9341d4d	-0.00017177053
36	0x3de08629	0.10963089
37	0x3e761405	0.24031074
38	0x3e32c82c	0.17459172
39	0x3e596b48	0.21232331

l2.weight f4 [24, 40]
0	0x3e6f5088	0.23370564
1	0x3e017892	0.1264365
2	0xbd8f4d37	-0.069971494
3	0x3e2a2b1e	0.1661801
4	0x3d8d4a5c	0.068989486
5	0x3ca60a19	0.020268487
6	0xbb329f40	-0.0027255565
7	0x3bdcf780	0.0067433715
8	0x3dac0bb0	0.08400667
9	0x3cf75998	0.030194089
10	0xbce8d232	-0.028420541
11	0x3df1a92e	0.117998466
12	0x3cf344bb	0.02969586
13	0xbe0e7e28	-0.13915312
14	0xbdabc0b3	-0.08386364
15	0xbdfb43e6	-0.1226881
16	0xbb98e5c0	-0.00466606
17	0x3e6501dd	0.22363992
18	0x3e0328b2	0.12808493
19	0xbdcdea98	-0.10054511
20	0xbd49aab6	-0.04923507
21	0xbc0b43b2	-0.008500027
22	0x3e2d8c6a	0.16948095
23	0x3e207228	0.15668547
24	0x3c582d57	0.013194404
25	0xbd07d9ce	-0.0331667
26	0xbd2744cb	-0.04083709
27	0xbca819d3	-0.020520126
28	0x3e862a9c	0.26204383
29	0xbdc81af7	-0.09770768
30	0xbd9cea80	-0.07661915
31	0x3deb776f	0.114973895
32	0xbe23295a	-0.15933743
33	0xbd539281	-0.05165339
34	0x3d9e9df8	0.07744974
35	0x3d17c377	0.037051644
36	0x3d8b632f	0.06806027
37	0x3dea525d	0.11441491
38	0x3db9f5a8	0.09080058
39	0x3e0a1b10	0.13486886
40	0x3e20b098	0.15692365
41	0xbd5e17b2	-0.054221816
42	0x3d95efe1	0.07321144
43	0x3d8407d2	0.06446804
44	0xbd8ffb44	-0.07030347
45	0x3ddc7d59	0.10766096
46	0x3d3706a0	0.044684052
47	0xbdf2614e	-0.11834966
48	0x3b8c2fa0	0.0042781383
49	0xbe099f3f	-0.13439654
50	0xbda615ce	-0.08109628
51	0x3db82a2e	0.0899242
52	0x3d654456	0.055973373
53	0x3da76af8	0.081746995
54	0xbe160d36	-0.14653477
55	0x3dfab4b6	0.12241499
56	0x3dbf9a22	0.093555704
57	0x3e80ece9	0.25180748
58	0xbd6deed1	-0.05808908
59	0x3dda9a29	0.10673935
60	0x3de9aab9	0.11409516
61	0x3d96d5f9	0.07365031
62	0xbc273205	-0.010204797
63	0xbd8d186b	-0.06889423
64	0x3e1231b4	0.14276773
65	0x3d11e104	0.035614982
66	0x3da18ad2	0.07887806
67	0x3e1a40d7	0.15063797
68	0x3e0de1ef	0.13855718
69	0x3e00a45a	0.12562695
70	0xbd9e8d65	-0.077418126
71	0xbd213d69	-0.039365206
72	0x3cf3fa81	0.029782536
73	0x3d0d46b1	0.034491245
74	0xbda6d8e5	-0.08146838
75	0x3d80b42c	0.06284365
76	0xbddd2dfd	-0.10799787
77	0x3e310f57	0.17291008
78	0x3d52aa60	0.051432014
79	0x3e5773f1	0.21040322
80	0x3e22ec7c	0.15910524
81	0xbdba5fe4	-0.09100321
82	0x3d2e6683	0.04257823
83	0x3c5f506e	0.013630016
84	0x3e02a1a8	0.1275698
85	0x3d1ebfb2	0.038757034
86	0xbdb2b08a	-0.087250784
87	0x3c93fc48	0.018064633
88	0xbcf797a0	-0.030223668
89	0xbd9115dc	-0.070842475
90	0xbdc11c85	-0.09429268
91	0xbd9d3468	-0.07676011
92	0x3d157d17	0.036496248
93	0x3ddb41f6	0.107059404
94	0xbce48ea0	-0.02790004
95	0x3d817186	0.06320481
96	0xbd6880a6	-0.056763314
97	0x3de98fad	0.11404357
98	0x3df837d9	0.12120027
99	0xbdd3abbc	-0.1033549
100	0x3cc78e33	0.024359798
101	0xbda4bf61	-0.08044315
102	0x3e556bec	0.2084195
103	0x3d53a38a	0.051669635
104	0x3e34224b	0.17591207
105	0x3e42799c	0.18991703
106	0xbe1f49ee	-0.15555546
107	0x3dd76802	0.10517885
108	0x3e910515	0.2832419
109	0x3de1e8ab	0.11030706
110	0xbdac5d47	-0.08416229
111	0x3dd04bc1	0.10170699
112	0xbd7f131c	-0.062274083
113	0x3e2f97f6	0.17147812
114	0xbd8e6bed	-0.06954179
115	0x3dae4712	0.08509649
116	0x3d85aaea	0.0652674
117	0x3daecdbb	0.08535334
118	0x3d65aad8	0.056071132
119	0x3d7e0548	0.062016755
120	0xbd03087b	-0.03199051
121	0x3e452af9	0.19254674
122	0x3d4f1b6b	0.050563257
123	0xbc7a9da4	-0.0152963735
124	0xbc272119	-0.010200762
125	0x3e310554	0.17287189
126	0x3d689c74	0.05678983
127	0xbbdb7a40	-0.006697923
128	0xbc196790	-0.00936307
129	0x3dab8e00	0.08376694
130	0x3dc3f24f	0.09567701
131	0x3e38bb9f	0.18040322
132	0x3de5f14f	0.112276666
133	0x3defc746	0.1170793
134	0xbde2d3ff	-0.11075591
135	0xbc780630	-0.015138194
136	0x3e067af5	0.13132842
137	0x3de4b4cc	0.11167297
138	0x3bc479b4	0.0059959535
139	0xbd66cff9	-0.056350682
140	0xbe07d3c2	-0.13264373
141	0xbcddad83	-0.027060276
142	0x3e2e967d	0.17049594
143	0xbe0ce0d2	-0.13757637
144	0xbd27d388	-0.040973216
145	0x3b04a37d	0.0020239048
146	0x3d2e643a	0.042576052
147	0x3e2356b1	0.15951039
148	0x3e795e7f	0.24352454
149	0xbcfc6b01	-0.030812742
150	0x3d5f6a5c	0.05454479
151	0xbdc756a9	-0.09733326
152	0xbe231f89	-0.15929998
153	0x3e2a72b0	0.16645312
154	0xbd83cca5	-0.06435517
155	0x3e062478	0.13099849
156	0xbd6655e2	-0.056234248
157	0x3d80457c	0.06263253
158	0x3d780450	0.060550988
159	0x3baf22f9	0.0053447452
160	0x3e1dd8c6	0.15414724
161	0xbdcd3ebd	-0.10021732
162	0x3d817047	0.06320243
163	0x3da0b031	0.07846106
164	0xbdefd248	-0.1171003
165	0xbd70cc64	-0.058788672
166	0x3c203d10	0.009780183
167	0x3d799fe0	0.060943484
168	0xbe165f9f	-0.14684914
169	0xbc8cc788	-0.017184988
170	0xbcbf027e	-0.023316618
171	0xbcebf976	-0.028805476
172	0x3e48568a	0.19564262
173	0xbc6d92e0	-0.01450035
174	0x3e205365	0.15656812
175	0xbdafaf05	-0.08578304
176	0xbdbe68c8	-0.09297329
177	0xbd40b846	-0.047050737
178	0x3db97fe2	0.09057595
179	0x3d17a719	0.03702459
180	0xbe04f54f	-0.12984203
181	0x3b86fd50	0.0041195527
182	0x3e553c47	0.20823775
183	0x3dea8969	0.1145199
184	0x3e4209be	0.18949029
185	0xbdc82e3e	-0.09774445
186	0x3de597f6	0.11210625
187	0x3b8c5d7c	0.004283605
188	0x3e6b9b72	0.23008516
189	0x3d42102c	0.047378704
190	0xbd94d7a8	-0.07267696
191	0xbd3c34f6	-0.045948945
192	0x3c3b30a2	0.011425169
193	0x3d90262c	0.07038531
194	0xbc6be596	-0.014397999
195	0xbd2b2f4d	-0.041793156
196	0x3b80e31d	0.003933324
197	0x3e825bf0	0.25460768
198	0xbdc0fb7c	-0.09422967
199	0x3dcfbb73	0.10143175
200	0x3e420ed0	0.18950963
201	0x3c9a19fd	0.01881122
202	0x3e105aad	0.1409709
203	0x3e594256	0.21216711
204	0x3d6b7717	0.05748662
205	0x3b784afe	0.0037886496
206	0xbdd9d46c	-0.106362194
207	0x3dd32066	0.10308914
208	0xbdbac312	-0.09119238
209	0xbd90ed4e	-0.07076512
210	0x3d793fe1	0.060851935
211	0x3c983098	0.018577859
212	0x3c43371a	0.011914993
213	0xbdad7722	-0.084699884
214	0x3df18f8d	0.11794958
215	0x3d1cb428	0.038257748
216	0x3d6b2264	0.057405844
217	0x3e138fad	0.14410277
218	0x3b35152c	0.0027631028
219	0x3de713ad	0.1128305
220	0xbce5fa62	-0.028073493
221	0x3e1069e0	0.14102888
222	0x3d1c4deb	0.038160246
223	0xbda63118	-0.08114833
224	0x3e5c9e33	0.21544723
225	0xbb45aca7	-0.0030162723
226	0x3e054ffb	0.13018791
227	0xbce43694	-0.027858056
228	0x3e61824c	0.2202236
229	0xbd399107	-0.045304324
230	0xbddce9ae	-0.10786758
231	0x3d1ff23a	0.039049365
232	0xbe25de81	-0.1619816
233	0xbca5989b	-0.02021437
234	0xbde76a40	-0.112995625
235	0x3ddbba3c	0.10728881
236	0xbd666c22	-0.056255467
237	0xbd13870b	-0.03601746
238	0x3d20ebe8	0.039287478
239	0x3e354d96	0.17705378
240	0x3e268dea	0.16265073
241	0x3e25f6fb	0.16207497
242	0xbcaee180	-0.021347761
243	0x3e3d4ef2	0.18487146
244	0x3c3a45bd	0.011369166
245	0x3d811058	0.063019454
246	0x3e041ef7	0.12902437
247	0xbdbdad42	-0.09261562
248	0xbd805a91	-0.06267274
249	0x3d125dd4	0.035734013
250	0x3e19c978	0.1501826
251	0xbd33dce4	-0.04391183
252	0xbd8e27e6	-0.06941204
253	0xbe1080de	-0.14111659
254	0xbd9b8f60	-0.07595706
255	0x3dce1b52	0.10063805

l2.bias f4 [24]
0	0xbdb1f4bc	-0.086892575
1	0x3cc9c0a1	0.024627985
2	0xbd839249	-0.06424386
3	0x3dbf750e	0.09348498
4	0x3dfbbffe	0.12292479
5	0x3e55d98e	0.20883772
6	0x3de63afc	0.11241719
7	0x3e17db29	0.14829697
8	0x3e3a5441	0.18196203
9	0x3eb6604e	0.3562035
10	0x3eaed392	0.3414579
11	0x3ec4ef06	0.3846361
12	0x3eb0b5bb	0.3451365
13	0x3e9ac250	0.30226374
14	0x3ea25910	0.31708574
15	0x3eccad86	0.39976138
16	0x3e95a9cc	0.29231107
17	0x3e9dd95f	0.30829903
18	0x3eecc94c	0.46247327
19	0x3ecfe886	0.4060709
20	0x3ee373b9	0.44424227
21	0x3e937b43	0.2880498
22	0x3eb64d02	0.35605627
23	0x3e893e0e	0.26805156
